l2r/baselines/checkpoints/thruxton/sac_episode_1000.pt (torch, 88611 bytes, 18 tensors)

weight f4 [64, 32]
0	0x3ab47f1c	0.0013770792
1	0x3e3101f0	0.17285895
2	0xbc1c2923	-0.009531292
3	0xbe7a6421	-0.24452259
4	0xbe3297a1	-0.17440654
5	0x3d8efca3	0.069817804
6	0xbbb41619	-0.0054957983
7	0x3de49630	0.111614585
8	0x3d8b8060	0.06811595
9	0xbb3990a0	-0.0028314963
10	0xbdf90f8e	-0.1216117
11	0xbd90dcbd	-0.070733525
12	0xbe7d7874	-0.2475298
13	0xbd40dcbc	-0.04708551
14	0xbdd7225f	-0.10504603
15	0x3cc3201f	0.023819027
16	0x3d9e9fc8	0.077453196
17	0x3cc49e70	0.02400133
18	0x3da64f3e	0.08120583
19	0xbc3e8a07	-0.011629588
20	0x3e875cf0	0.26438093
21	0x3d436af5	0.047709424
22	0xbe0ed9b3	-0.13950233
23	0x3e8d9a10	0.27656603
24	0xbdbcf89c	-0.09227106
25	0xbc6d4782	-0.014482381
26	0x3daaad96	0.0833389
27	0xbd82f808	-0.063949645
28	0xbe4a4067	-0.1975113
29	0x3bcbedf1	0.006223433
30	0xbe13ef2f	-0.1444671
31	0xbd63fad9	-0.05565915
32	0x3d529eb3	0.05142088
33	0xbda4fa26	-0.080555245
34	0xbc999f76	-0.018752795
35	0xbe608060	-0.21923971
36	0xbc63aeb3	-0.013896632
37	0x3e5f69b6	0.2181767
38	0xbe6c9f0b	-0.23107545
39	0xbd117b3c	-0.035517916
40	0x3da00e9d	0.07815287
41	0xbdb21f12	-0.086973324
42	0x3e0deaf2	0.13859156
43	0xbe0851f2	-0.1331251
44	0xbe2da8d0	-0.16958928
45	0xbd02ab49	-0.03190163
46	0x3e248f5b	0.16070311
47	0x3d67886d	0.05652659
48	0xbeac5fb4	-0.33666766
49	0x3d98c47f	0.07459354
50	0x3e13faf6	0.14451203
51	0x3b950981	0.004548252
52	0xbd4c5707	-0.049887683
53	0xbe904a24	-0.28181565
54	0x3d851207	0.06497579
55	0xbe0051a3	-0.12531142
56	0xbd7cce02	-0.0617199
57	0x3e128996	0.14310297
58	0xbdf90ed5	-0.12161032
59	0xbd9f74c3	-0.077859424
60	0x3cd20679	0.025637852
61	0x3d2419bb	0.0400636
62	0xbc711d1c	-0.014716413
63	0xbc37a082	-0.011207702
64	0x3e086b07	0.13322078
65	0xbdb7c083	-0.089722656
66	0x3dc42dd1	0.09579051
67	0xbcd2e13b	-0.025742164
68	0x3e5ef535	0.21773227
69	0x3e4c9880	0.19980049
70	0xbe8ce6ce	-0.2751984
71	0xbebde23f	-0.37086675
72	0x3dcf1c41	0.10112811
73	0x3e1bb9f5	0.15207656
74	0x3d451540	0.04811597
75	0x3e1705cc	0.14748305
76	0x3d61d63c	0.05513595
77	0xbe7144b1	-0.2356136
78	0xbe10f151	-0.14154555
79	0x3e464f78	0.19366252
80	0x3c1d1ae4	0.009588931
81	0x3e0e4569	0.13893665
82	0xbdd0499d	-0.101702906
83	0xbdce281d	-0.10066245
84	0xbd8fad18	-0.07015437
85	0xbd0d0f39	-0.034438346
86	0x3e02152e	0.12703392
87	0xbe384abb	-0.17997257
88	0xbb824d56	-0.0039765043
89	0xbda908de	-0.082536444
90	0xbd397d62	-0.04528559
91	0x3d061205	0.03273203
92	0x3d06021c	0.032716855
93	0xbd8b3f93	-0.06799235
94	0xbdb830ac	-0.089936584
95	0xbe8e74fb	-0.27823624
96	0x3d38e443	0.045139562
97	0xbcf49b42	-0.029859189
98	0xbe1520a3	-0.14563231
99	0xbdc42e8f	-0.09579193
100	0x3e2396dc	0.15975517
101	0x3e352a98	0.1769203
102	0xbd04fbcf	-0.032466706
103	0x3d81d0ff	0.06338691
104	0xbca8fe41	-0.02062905
105	0xbdc068da	-0.09394999
106	0x3b8b75a4	0.004255967
107	0xbd3e797a	-0.046502568
108	0x3dbebdb4	0.09313527
109	0x3e28a40c	0.16468829
110	0x3e2eed98	0.17082822
111	0x3ec6673d	0.3875064
112	0xbdf2ba77	-0.118519716
113	0x3e8f36fc	0.27971637
114	0x3dc9e1bf	0.09857511
115	0xbdc430c4	-0.09579614
116	0xbbd649dc	-0.0065395664
117	0xbdde2263	-0.108464025
118	0xbd0c8a2e	-0.034311466
119	0x3d8e9530	0.06962049
120	0xbdb0ddfd	-0.08636091
121	0x3d290f96	0.04127463
122	0xbe07164a	-0.13192096
123	0x3d1b4d85	0.037915725
124	0xbe7d1b72	-0.24717501
125	0xbdb27b32	-0.08714904
126	0x3d976510	0.07392323
127	0xbdbdc368	-0.092657864
128	0xbcc06c8b	-0.023489257
129	0xbde20f6b	-0.11038097
130	0x3d671da7	0.056424763
131	0xbe3e80a9	-0.18603767
132	0xbcf8b9c9	-0.030362027
133	0xbe40878f	-0.18801711
134	0xbe269ea9	-0.16271462
135	0x3e2d5647	0.16927443
136	0x3dffc264	0.12488249
137	0xbe0b2785	-0.13589294
138	0xbd3ab261	-0.04558027
139	0xbd716276	-0.05893179
140	0x3db2d8c0	0.08732748
141	0x3e62797c	0.22116655
142	0x3ec20d6d	0.37900868
143	0xbd5a9264	-0.053362265
144	0x3e8072dd	0.25087634
145	0x3dddc65b	0.10828849
146	0x3c890911	0.016727956
147	0xbcbc99c8	-0.023022547
148	0xbdeb6049	-0.11492974
149	0xbe26fb0b	-0.16306703
150	0xbe159334	-0.14606935
151	0xbe08601c	-0.13317913
152	0xbe22200b	-0.15832536
153	0xbb265874	-0.0025382312
154	0x3e81dbf8	0.25363135
155	0xbdae35e1	-0.0850637
156	0x3e935449	0.28775242
157	0xbc4fe37e	-0.012688516
158	0xbe5af813	-0.21383695
159	0x3e0e1047	0.13873397
160	0xbdf3f9f4	-0.11912909
161	0xbd76fa75	-0.06029745
162	0xbe2cc1fa	-0.16870871
163	0xbd9ba780	-0.076003075
164	0x3c5957b8	0.013265543
165	0xbd8c8af4	-0.06862441
166	0xbd4596f1	-0.048239652
167	0x3e496813	0.19668607
168	0xbd911992	-0.07084955
169	0x3d21303e	0.039352648
170	0x3e80350e	0.25040478
171	0xbddab4a7	-0.10678988
172	0x3e06f96a	0.13181081
173	0x3c8f21b3	0.017472124
174	0xbe648937	-0.22317968
175	0x3e066b91	0.13126971
176	0x3bc4e2cb	0.006008481
177	0xbdb468f0	-0.08809078
178	0xbd9492e1	-0.072545774
179	0xbdc0a396	-0.094062015
180	0xbe17e974	-0.14835149
181	0x3e02e7c4	0.12783724
182	0x3e821c62	0.2541228
183	0x3c6388a8	0.013887562
184	0x3da149c9	0.078754015
185	0xbdc3bfed	-0.09558091
186	0x3915c4e0	0.00014283089
187	0xbda8e08a	-0.082459524
188	0xbdf5da94	-0.12004581
189	0x3d4481f6	0.047975503
190	0x3dc09efc	0.09405324
191	0xbcd52e70	-0.02602312
192	0xbdf998f2	-0.12187375
193	0x3dab16ce	0.08353959
194	0xbde26bfa	-0.11055751
195	0xbd33b015	-0.043869097
196	0xbdaebd0e	-0.08532153
197	0x3d593a67	0.053034212
198	0xbe6aac2d	-0.22917242
199	0xbe1e573f	-0.15462969
200	0x3e3a743b	0.18208401
201	0xbd32e563	-0.04367579
202	0xbe59dc77	-0.21275507
203	0xbe946f22	-0.28991038
204	0x3d73d270	0.05952686
205	0x3df498b6	0.1194319
206	0xbda0031f	-0.07813095
207	0x3cc1c32e	0.02365264
208	0xbd826b4a	-0.0636812
209	0x3c9135ea	0.017725904
210	0x3e060427	0.13087521
211	0x3d8053f5	0.062660135
212	0xbdb392a0	-0.08768201
213	0xbcee2ccd	-0.029074097
214	0xbc15904d	-0.009128642
215	0xbd0f96b3	-0.035055827
216	0xbe4404bb	-0.1914243
217	0xbe294883	-0.16531567
218	0x3d01063f	0.031500097
219	0xbeaaea97	-0.33382103
220	0xbe3bf5eb	-0.18355529
221	0x3ddad082	0.10684301
222	0x3dc87d1a	0.09789486
223	0x3c3fb317	0.011700413
224	0xbcebc9d8	-0.02878277
225	0x3e96efc9	0.29479817
226	0xbd8cbd5f	-0.06872057
227	0xbe77542f	-0.24153207
228	0xbddc63d7	-0.107612304
229	0xbe798ddc	-0.24370521
230	0x3e021dff	0.12706755
231	0x3e8649a2	0.26228052
232	0x3d2b2101	0.04177952
233	0x3e333c8c	0.17503566
234	0x3c57c832	0.013170289
235	0xbdabd549	-0.0839029
236	0x3d732325	0.05935969
237	0xbda88341	-0.0822816
238	0xbc89c109	-0.01681568
239	0xbdaf36c4	-0.085553676
240	0x3e6a4118	0.22876394
241	0x3d11f9b9	0.035638545
242	0xbcfb5777	-0.030681355
243	0xbd1d6d15	-0.038434107
244	0x3db261b7	0.08710044
245	0xbdc1f878	-0.0947122
246	0x3cd859ba	0.026409972
247	0xbe740836	-0.23831257
248	0xbcd66948	-0.026173249
249	0xbd10c6d8	-0.035345882
250	0x3e38beec	0.18041581
251	0x3dc39007	0.095489554
252	0x3e8240ae	0.25439972
253	0x3d966334	0.0734314
254	0xbea3c41f	-0.31985566
255	0x3d3a6056	0.04550203

bias f4 [64]
0	0xbe176365	-0.1478401
1	0xbe27557e	-0.16341206
2	0xbdba78ee	-0.09105097
3	0xbd108577	-0.035283532
4	0xbdfc633d	-0.12323616
5	0xbde1cea7	-0.11025744
6	0xbd1611b4	-0.036637977
7	0xbcd55853	-0.026043093
8	0x3d042212	0.032259054
9	0x3de7323c	0.11288878
10	0xbe4acfce	-0.19805834
11	0xbdc31462	-0.09525372
12	0xbd0755da	-0.03304086
13	0xbc2604b5	-0.010132958
14	0xbd8eb9a8	-0.06969005
15	0x3cfea622	0.031085078
16	0xbd6dcafd	-0.058054913
17	0x3df2ff51	0.11865104
18	0xbe188b8c	-0.14896983
19	0xbde55be1	-0.11199165
20	0xbe27ec09	-0.16398634
21	0xbd2d3ed9	-0.042296264
22	0xbc876c94	-0.016531266
23	0x3d82a6bf	0.063794605
24	0xbe33428d	-0.17505856
25	0x3d4b181c	0.04958354
26	0x3d11d0eb	0.03559963
27	0xbdb44413	-0.088020466
28	0xbdb9dc35	-0.09075204
29	0xbdf5e075	-0.120057024
30	0xbda207c5	-0.07911638
31	0xbd715780	-0.058921337
32	0xbdbffadc	-0.093740195
33	0xbe4c4ac0	-0.1995039
34	0xbdcec11a	-0.10095425
35	0x3de92cd6	0.11385505
36	0xbe101c64	-0.1407333
37	0x3d5d3064	0.054001227
38	0xbdfb99c4	-0.12285188
39	0x3df71c12	0.12065901
40	0xbe30c4e7	-0.17262612
41	0xbe28c477	-0.16481195
42	0xbe2a06d8	-0.16604173
43	0xbdf4d24f	-0.11954176
44	0x3dfacb0c	0.12245759
45	0xbe1caa36	-0.15299305
46	0xbd84e9bd	-0.064898945
47	0x3c43e1ef	0.011955722
48	0x3d117af6	0.035517655
49	0x3c2e5f9b	0.010642911
50	0xbd680bc3	-0.05665184
51	0xbc2f78a4	-0.010709915
52	0xbe84fa49	-0.25972202
53	0xbd25a2d6	-0.040438496
54	0xbda26f31	-0.07931364
55	0xbe20f1f9	-0.15717305
56	0x3c9c0835	0.019046882
57	0x3dcb7224	0.0993388
58	0xbd3c5e66	-0.045988463
59	0xbe0462d4	-0.12928325
60	0x3dab3633	0.08359947
61	0x3d0217e9	0.031761084
62	0xbda517a4	-0.0806115
63	0xbd1d5b92	-0.038417406

weight f4 [64, 64]
0	0x3ce92a19	0.028462457
1	0x3db626c3	0.08894112
2	0xbd364f39	-0.044509146
3	0xbe08a830	-0.13345408
4	0xbe583879	-0.21115293
5	0xbe16b55b	-0.14717619
6	0x3dd5cc47	0.104393534
7	0xbd7e5b02	-0.06209851
8	0x3d5b3d67	0.053525355
9	0xbc896ab0	-0.016774505
10	0xbda734c5	-0.08164362
11	0xbe3ad043	-0.18243508
12	0xbe0b3f30	-0.13598323
13	0x3e03f8ea	0.12887922
14	0x3dcab0fc	0.09897038
15	0xbd658382	-0.05603362
16	0x3e2e0cef	0.16997121
17	0xbe007eaf	-0.12548326
18	0xbd3d78b7	-0.0462577
19	0x3da51d61	0.08062244
20	0xbded7890	-0.11595261
21	0xbb9e4710	-0.0048302487
22	0xbe831d59	-0.25608328
23	0xbda734bf	-0.081643574
24	0x3da31848	0.07963616
25	0xbe7aaa70	-0.24479079
26	0x3d85e4a2	0.06537749
27	0x3d2c59b6	0.042077743
28	0xbdfe05da	-0.1240346
29	0x3deab0db	0.11459514
30	0xbd877c45	-0.066154994
31	0xbe5d87b2	-0.21633795
32	0xbdda30f1	-0.10653866
33	0xbe0d4dd3	-0.13799219
34	0xbd53ec00	-0.05173874
35	0xbcb4cd0d	-0.022070432
36	0xbe657ad4	-0.22410136
37	0xbe6133a4	-0.21992356
38	0x3d0eb171	0.03483719
39	0xbc3eca8f	-0.011644973
40	0x3d954856	0.072891876
41	0x3e10b305	0.1413079
42	0x3dca5e89	0.098813124
43	0xbdb510a9	-0.08841068
44	0x3cae43a1	0.021272482
45	0xbe84efae	-0.2596411
46	0xbbafac2a	-0.0053610997
47	0xbe062929	-0.13101639
48	0x3ccdb842	0.025112275
49	0xbd80cb7e	-0.06288813
50	0xbe4830f6	-0.19549927
51	0x3d487a49	0.048944745
52	0xbe0ee4e5	-0.13954504
53	0xbd32e367	-0.0436739
54	0x3da1d2e9	0.07901556
55	0xbd8cc9c5	-0.06874422
56	0xbdb9d2a1	-0.090733774
57	0xbcca3b04	-0.024686344
58	0xbdf1f2bd	-0.11813877
59	0xbdee2c1b	-0.11629506
60	0x3db3639b	0.087592326
61	0x3bf448e7	0.0074549797
62	0xbcd64c32	-0.02615938
63	0xbd81b67e	-0.06333636
64	0xbcf7a36f	-0.030229298
65	0xbe31f7ed	-0.17379732
66	0x3ca6a4ee	0.020342316
67	0xbcb5d2e8	-0.022195294
68	0xbd776be7	-0.060405638
69	0xbd90a1d3	-0.070621155
70	0xbd13ba93	-0.036066603
71	0xbe1e376d	-0.15450831
72	0xbe49088d	-0.19632168
73	0x3da0a452	0.078438416
74	0xbd89b2a7	-0.06723528
75	0xbc16715a	-0.009182299
76	0x3d1c4ace	0.038157277
77	0x3db19eb3	0.086728476
78	0xbdd4492d	-0.1036552
79	0xbe3fe3c5	-0.18739231
80	0xbd12dd3b	-0.035855513
81	0x3cb918fa	0.022594918
82	0x3d3f2ec1	0.046675447
83	0x3dbadfef	0.09124743
84	0xbdbcd621	-0.09220529
85	0xbe4cc172	-0.19995669
86	0xbb22cce0	-0.0024841353
87	0xbe595276	-0.21222863
88	0x3e056c68	0.13029635
89	0xbe1e6146	-0.15466794
90	0x3e4d4977	0.20047556
91	0x3bd25b31	0.0064195623
92	0xbe0f4c0b	-0.13993852
93	0xbd76c0f7	-0.06024262
94	0xbdf654a5	-0.120278634
95	0xbe1256f0	-0.14290977
96	0x3deae418	0.11469287
97	0xbe77805b	-0.24170057
98	0xbe2d84be	-0.16945168
99	0xbe4ca934	-0.19986421
100	0x3d5d2807	0.05399325
101	0xbe78b66c	-0.24288338
102	0x3e3c61db	0.18396704
103	0x3d7eed74	0.06223817
104	0x3e3c5199	0.18390502
105	0xbe81009e	-0.25195783
106	0xbd08477e	-0.033271305
107	0xbd0f2ba8	-0.034953743
108	0x3bdb9abe	0.0067017963
109	0xbda63281	-0.081151016
110	0xbe0e7bfb	-0.13914482
111	0x3be24931	0.0069056978
112	0xbd6d276b	-0.05789892
113	0xbca71659	-0.020396398
114	0x3ddeb4b7	0.10874312
115	0xbe43b5b5	-0.19112284
116	0x3e5de78c	0.2167036
117	0xbe1927d9	-0.14956607
118	0x3d4fc112	0.050721236
119	0xbe7d4838	-0.2473458
120	0xbe5693c3	-0.20954804
121	0xbd9372cb	-0.071996294
122	0xbe845a56	-0.2585017
123	0x3d59ee2f	0.053205665
124	0x3d4f353f	0.05058789
125	0xbdb1a794	-0.08674541
126	0x3e5848b8	0.2112149
127	0x3de16936	0.110063955
128	0xbd44e1b4	-0.04806681
129	0xbe8f048f	-0.27933165
130	0x3d259797	0.04042777
131	0xbe3cc05c	-0.18432754
132	0xbe716a4a	-0.23575702
133	0x3dab5cc1	0.08367301
134	0xbe019fbd	-0.12658592
135	0xbddfea57	-0.10933369
136	0xbde00448	-0.109383166
137	0xbd2e91b3	-0.04261942
138	0x3c84313c	0.016136758
139	0x3e203a07	0.15647136
140	0x3e1aa1f3	0.15100841
141	0x3e3f7c5d	0.18699785
142	0xbd9b432a	-0.0758117
143	0xbe1d83be	-0.15382287
144	0x3dccc416	0.09998338
145	0xbd079bd0	-0.03310758
146	0x3dda2a88	0.106526434
147	0x3d63ab88	0.055583507
148	0x3d27a517	0.040928926
149	0xbd6222e3	-0.05520905
150	0x3e2afa69	0.16697086
151	0xbd6a05f8	-0.0571346
152	0xbd85e8b5	-0.06538526
153	0xbdb853df	-0.09000372
154	0x3da88b9b	0.08229753
155	0x3e456f22	0.19280675
156	0xbe40cd5c	-0.18828338
157	0xbdf4962a	-0.11942704
158	0x3e387d42	0.18016532
159	0xbdaf2bc7	-0.08553272
160	0xbd2746d4	-0.04083903
161	0xbd4573b8	-0.04820606
162	0xbc4ca5b8	-0.012490682
163	0xbd8fe9dd	-0.07027028
164	0x3d07aa04	0.033121124
165	0x3d1e6220	0.038667798
166	0x3e7d5f26	0.24743327
167	0x3d6f88e1	0.058480147
168	0x3ceb26fa	0.028705109
169	0xbe46d008	-0.19415295
170	0x3d06cac5	0.03290822
171	0x3cfc90fe	0.030830856
172	0x3d8cfc5f	0.068840735
173	0xbe2d8fd2	-0.16949394
174	0xbe5103ae	-0.2041156
175	0x3e02c023	0.12768607
176	0xbe492646	-0.19643506
177	0x3db9084d	0.090347864
178	0x3da12226	0.078678414
179	0x3de14b2b	0.11000665
180	0x3ddfd2d1	0.10928882
181	0x3d9895a9	0.074504204
182	0x3b2e3a96	0.0026585213
183	0x3cbdf061	0.02318591
184	0x3d16bc56	0.036800705
185	0x3d49124e	0.049089722
186	0xbd4f9126	-0.050675534
187	0x3bdb536e	0.006693295
188	0xbdb059d8	-0.08610886
189	0xbe1f3f07	-0.15551387
190	0x3b0981f3	0.0020981997
191	0x3e37b2d7	0.17939316
192	0xbe5de927	-0.21670972
193	0xbc899206	-0.016793262
194	0xbcf995da	-0.030466963
195	0xbd7a6b93	-0.061137747
196	0x3db1681b	0.08662435
197	0xbd8fca6c	-0.07021031
198	0x3cb20e3f	0.021735309
199	0x3c38fdc6	0.011290973
200	0xbe1561d3	-0.14588098
201	0x3e210d9f	0.15727852
202	0xbe01779a	-0.1264328
203	0xbe51d257	-0.20490395
204	0xbe12892c	-0.1431014
205	0xbe86a7ac	-0.26299798
206	0xbe5cf1ec	-0.21576661
207	0xbdae126a	-0.08499606
208	0x3ad1fea8	0.0016021328
209	0x3db51c4c	0.08843288
210	0xbe35ca27	-0.17752896
211	0x3d3ebabd	0.046564806
212	0xbe13a033	-0.1441658
213	0x3d580291	0.052736823
214	0x3c6eefa6	0.014583504
215	0x3bcc5b7a	0.006236491
216	0x3d80dca2	0.06292082
217	0x3c8a0556	0.016848247
218	0xbc28eab7	-0.010309867
219	0xbd871189	-0.065951414
220	0xbe2a9637	-0.16658865
221	0xbe475960	-0.19467688
222	0xbe00d204	-0.12580115
223	0x3d86ff08	0.06591612
224	0xbd89be80	-0.06725788
225	0x3db48462	0.088143125
226	0xbdd5bd00	-0.104364395
227	0xbd9ed3ab	-0.07755216
228	0xbd61659e	-0.05502855
229	0xbe152748	-0.14565766
230	0xbd198b32	-0.037486263
231	0xbd18560f	-0.037191447
232	0xbdd9316b	-0.10605129
233	0x3d2205c2	0.039556272
234	0xbe0b56ad	-0.13607283
235	0xbdb48a1f	-0.08815407
236	0x3e199676	0.14998803
237	0xbe1762ae	-0.14783737
238	0x3c534470	0.012894735
239	0x3c927df2	0.017882321
240	0xbd0d3424	-0.034473553
241	0xbe731a3f	-0.23740481
242	0x3bf25c9d	0.0073962943
243	0xbd76f941	-0.0602963
244	0xbc0e6a54	-0.008692343
245	0xbc55367e	-0.01301348
246	0x3e1e2244	0.15442759
247	0x3e1b31ea	0.1515576
248	0xbcff692d	-0.031178081
249	0xbcf441df	-0.029816566
250	0x3db38f1a	0.08767529
251	0xbe52ebaf	-0.20597719
252	0xbdcc661e	-0.09980415
253	0xbe2daf63	-0.16961436
254	0xbdda249f	-0.10651516
255	0xbd32eaa5	-0.043680806

bias f4 [64]
0	0x3c8f2c4c	0.017477177
1	0xbd771b3a	-0.0603287
2	0xbcf3afe7	-0.029746963
3	0x3d1d59e5	0.03841581
4	0xbe49269e	-0.19643638
5	0xbd53b748	-0.051688462
6	0xbd9eabbf	-0.07747602
7	0xbd808d28	-0.062769234
8	0xbe589480	-0.21150398
9	0xbe0c4b97	-0.1370071
10	0x3e066a65	0.13126524
11	0x3e7defe4	0.24798542
12	0x3c9b9b9d	0.0189951
13	0x3dfa8aff	0.12233543
14	0xbd942fe0	-0.07235694
15	0xbb84dab2	-0.004054391
16	0x3d74ed55	0.05979665
17	0xbd1b5322	-0.03792108
18	0xbd58a9f0	-0.05289644
19	0xbe1e64de	-0.15468165
20	0x3d9f242e	0.077705726
21	0xbdc2c1f3	-0.09509649
22	0xbdf01264	-0.11722258
23	0x3c5199fc	0.01279306
24	0xbe21c4ce	-0.15797731
25	0x3da19419	0.078895755
26	0x3d6b84f8	0.057499856
27	0xbd8ac5b7	-0.06775992
28	0xbd7bf82f	-0.061515983
29	0x3d164573	0.036687326
30	0xbd18c49d	-0.03729688
31	0xbbffb8d4	-0.0078040157
32	0x3ddf6327	0.10907584
33	0xbe38d82d	-0.18051215
34	0x3e3438c1	0.17599775
35	0xbba5e0a6	-0.0050621806
36	0x3c855253	0.016274607
37	0xbde2b40b	-0.11069497
38	0x3d26a056	0.040680252
39	0x3cdf011c	0.027222209
40	0xbddc06f4	-0.10743514
41	0x3e092e32	0.13396528
42	0x3e13a351	0.14417769
43	0x3b1f39b4	0.0024295868
44	0xbcdbb70b	-0.02682068
45	0xbd617208	-0.05504039
46	0x3cbf1537	0.023325546
47	0xbb04ce33	-0.0020264506
48	0xbde75d5d	-0.112971045
49	0xbd0ddc77	-0.03463408
50	0xbd44e64b	-0.048071187
51	0x3d130dfb	0.035902005
52	0x3e1e710b	0.1547281
53	0xbd56ebc5	-0.05247094
54	0xbdfd1729	-0.12357933
55	0x3dce30fd	0.100679375
56	0xbc3caf8d	-0.011516464
57	0xbcc49cdf	-0.024000583
58	0x3ddc2f4f	0.10751211
59	0x3decdd3f	0.11565637
60	0x3bf5c6a5	0.007500487
61	0x3d96ff2f	0.07372891
62	0xbdb7fbb3	-0.08983555
63	0xbd8b0bac	-0.067893356

weight f4 [2, 64]
0	0xbcba8732	-0.022769544
1	0xbe5c42d1	-0.21509863
2	0xbe85e6f2	-0.2615276
3	0x3c8acf78	0.016944632
4	0xbe0aa40d	-0.13539143
5	0x3e38039a	0.17970124
6	0xbe298edc	-0.16558403
7	0x3cab7848	0.020931378
8	0x3e68e7e0	0.22744703
9	0x3cae9cbd	0.021314973
10	0x3e8b64d9	0.27225378
11	0x3e990362	0.29885393
12	0x3bde05fd	0.006775616
13	0xbd93a53b	-0.072092496
14	0xbb692358	-0.0035574045
15	0x3d01d9b2	0.03170175
16	0x3e35f80b	0.17770402
17	0xbe6333d3	-0.22187738
18	0xbe2aafb0	-0.16668582
19	0xbe8cb32d	-0.2748045
20	0xbde4bead	-0.11169181
21	0x3dd373bd	0.1032481
22	0xbc3bd927	-0.011465347
23	0x3e4fcc2c	0.20292729
24	0x3d6c331d	0.057665933
25	0xbe8b38f5	-0.27191892
26	0x3e3d41f9	0.18482198
27	0xbd54dd55	-0.05196889
28	0x3e32e4ba	0.17470065
29	0x3c668fc2	0.0140723605
30	0xbeaebbff	-0.34127805
31	0x3e8e5940	0.27802467
32	0xbe01af21	-0.12664463
33	0xbd54f9ed	-0.05199616
34	0xbe2f725b	-0.17133467
35	0xbdea1125	-0.11429051
36	0xbd4fbe39	-0.05071852
37	0x3d286f27	0.041121628
38	0xbe1ee9aa	-0.15518823
39	0x3ce78814	0.02826313
40	0x3e1dd090	0.15411592
41	0x3e4cdcca	0.200061
42	0x3e012b75	0.12614234
43	0xbe389cf0	-0.18028617
44	0xbd428e5f	-0.047499057
45	0xbd934732	-0.07191314
46	0xbe4a184a	-0.19735828
47	0xbe7547ac	-0.23953122
48	0x3d578706	0.052619003
49	0x3e6193fe	0.22029111
50	0xbdfaa56f	-0.12238585
51	0x3d1c0cdc	0.0380982
52	0xbe33c63f	-0.17556094
53	0x3d0827e3	0.033241164
54	0x3dc488fd	0.09596441
55	0x3e4d85cd	0.20070572
56	0x3e6840c4	0.22680956
57	0xbd6c6bab	-0.057719868
58	0xbe0ac79e	-0.1355271
59	0xbe62f112	-0.22162274
60	0xbdc27d68	-0.094965756
61	0x3e8313dc	0.2560109
62	0x3e02ba5c	0.12766403
63	0x3d084b92	0.033275194
64	0x3d93aadc	0.07210323
65	0xbdba5fbd	-0.09100292
66	0x3e096102	0.13415912
67	0xbe2e553c	-0.17024702
68	0xbdc6faff	-0.097158425
69	0xbcac4b08	-0.021031871
70	0xbb49463c	-0.003071203
71	0x3d8ce7a1	0.06880117
72	0x3d85303d	0.06503341
73	0x3ccc1807	0.0249138
74	0xbd6037f9	-0.05474088
75	0x3d7d8b2e	0.06190031
76	0x3db2d153	0.08731332
77	0x3db65c5a	0.089043334
78	0x3caa1e00	0.020766258
79	0x3e0a5415	0.13508637
80	0x3d80e0f7	0.06292909
81	0xbcb66ea4	-0.022269554
82	0xbd3e7d6c	-0.04650633
83	0xbe05e6fe	-0.13076398
84	0x3dad0f4c	0.08450183
85	0x3c2c375e	0.010511247
86	0x3c42a3cb	0.011879872
87	0x3c854075	0.016266087
88	0x3ceb1512	0.02869657
89	0x3d8939e2	0.067004934
90	0x3dc4cbfc	0.096092194
91	0xbd905e2c	-0.07049212
92	0x3c062000	0.00818634
93	0x3cc6f5bf	0.024287103
94	0x3ddbc051	0.10730041
95	0x3d9c64f0	0.0763644
96	0xbca52e84	-0.020163782
97	0xbe98fc31	-0.29879907
98	0x3cc1a1f5	0.023636797
99	0xbd9470c6	-0.07248072
100	0xbdd701cb	-0.10498389
101	0xbd4a0cf8	-0.049328774
102	0x3e120f6a	0.14263692
103	0x3e14bfdc	0.14526314
104	0xbdd84427	-0.10559874
105	0x3d0ec905	0.034859676
106	0x3d5a75a1	0.053334836
107	0x3cecceec	0.028907262
108	0x3be3e1b7	0.0069543975
109	0x3ca4e71a	0.020129729
110	0x3d377e23	0.044798028
111	0x3dc7421b	0.097294055
112	0xbd7e3930	-0.062066257
113	0xbd0ce0ad	-0.034393955
114	0xbcb419cd	-0.021984959
115	0x3da24588	0.07923418
116	0x3b33c68b	0.0027431573
117	0x3d48b72f	0.049002822
118	0xbdf4ff34	-0.11962739
119	0xbcd706c0	-0.026248336
120	0x3d9559f2	0.07292546
121	0xbdb67120	-0.08908296
122	0xbc190fc1	-0.009342135
123	0xbc8bdf44	-0.017074235
124	0x3e0695e9	0.13143124
125	0xbcd2f6d1	-0.025752457
126	0xbe0c8363	-0.13721995
127	0x3d55e183	0.052217018

bias f4 [2]
0	0x3cf5991b	0.029980233
1	0x3d1822b7	0.03714248

weight f4 [2, 64]
0	0xbdb2ff75	-0.08740131
1	0xbd674d69	-0.05647031
2	0x3c9ed4f5	0.019388655
3	0x3d85cc76	0.065331385
4	0x3d0f85d4	0.035039738
5	0xbd0b67b0	-0.03403443
6	0x3da550a1	0.08072019
7	0x3c55ded9	0.013053619
8	0x3c68a0d2	0.014198499
9	0xb8db9d98	-0.00010472088
10	0xbdd81485	-0.10550789
11	0xbd893bc9	-0.06700856
12	0x3cff4a28	0.03116329
13	0xbd7e347c	-0.06206177
14	0x3b46714b	0.003027993
15	0xbb896149	-0.0041925055
16	0xbd422c6f	-0.047405656
17	0xbda2f0a3	-0.07956054
18	0xbd90d5f5	-0.07072059
19	0x3d9c7103	0.07638743
20	0xbe00555a	-0.12532559
21	0x3d443ae9	0.047907744
22	0x3c88698b	0.01665189
23	0xbd3ddf7b	-0.046355706
24	0xbc7aef30	-0.015315816
25	0x3d207953	0.039178204
26	0xbd76987f	-0.060204025
27	0x3c135e8c	0.00899471
28	0x3d9aae8a	0.07552822
29	0xbd40a6d1	-0.04703409
30	0xbdef8a79	-0.116963334
31	0xbdc5eb1b	-0.096639834
32	0xbd856bc5	-0.06514696
33	0x3b58141f	0.0032970977
34	0xbd8d7c04	-0.0690842
35	0xbdd63e2c	-0.10461077
36	0xbc84b144	-0.016197808
37	0x3d60c7eb	0.054878157
38	0xbc23f86a	-0.010007957
39	0xbcf7d3c1	-0.03025234
40	0x3d3ff324	0.046862736
41	0xbd2724a6	-0.040806435
42	0xbdb29083	-0.0871897
43	0x3d074c7d	0.03303193
44	0xbd901020	-0.070343256
45	0xbd8d0c8c	-0.06887159
46	0xbdb4bace	-0.08824693
47	0x3cadfaf7	0.021237833
48	0x3e23e44c	0.16005057
49	0xbd61bfc6	-0.05511453
50	0xbd9fcf14	-0.07803169
51	0x3e7f5101	0.24933244
52	0xbd90015e	-0.07031511
53	0x3d8bc144	0.06823972
54	0x3c3b6dff	0.011439799
55	0xbd51303d	-0.051071394
56	0x3d00045f	0.03125417
57	0xbc492227	-0.012276209
58	0x3c92b49b	0.017908385
59	0xbcd235f7	-0.025660498
60	0x3dcc2d1b	0.09969541
61	0xbdc94a05	-0.09828571
62	0xbd74fd7f	-0.059812065
63	0x3c27279d	0.010202316
64	0x3d212a26	0.039346837
65	0xbc4eeb1e	-0.0126292985
66	0xbd02d9b1	-0.031945888
67	0xbbd674c1	-0.00654468
68	0x3bd462dc	0.0064815115
69	0xbd3df93d	-0.04638027
70	0x3c9efeb7	0.019408567
71	0xbd0f9b6a	-0.035060324
72	0x3c29581d	0.010335949
73	0x3b7927a9	0.0038018024
74	0xbc6416bd	-0.013921437
75	0xbc32a6b0	-0.010903999
76	0xbcb32a36	-0.021870714
77	0xbd40e85c	-0.047096595
78	0xbd0f7d6d	-0.035031725
79	0xbb5ccc23	-0.003369101
80	0x3d04ab4b	0.03238992
81	0xbcc524f8	-0.02406548
82	0x3d201ab1	0.039087955
83	0x3d1c08e7	0.038094427
84	0xbd52b1bf	-0.051439043
85	0x3d335e51	0.04379112
86	0x3c5133f8	0.012768738
87	0x3c3e677f	0.011621355
88	0x3c5e0c14	0.013552684
89	0x3cf814bd	0.030283326
90	0xbc65ec57	-0.014033399
91	0x3d652d92	0.055951662
92	0x39c9f10e	0.00038517307
93	0xbd211b34	-0.039332584
94	0xbc1eaf7c	-0.009685393
95	0xbcb7c6fb	-0.022433748
96	0xbcb38b36	-0.021916967
97	0xbd163548	-0.036671907
98	0x3d32a0ed	0.043610502
99	0x3cbba06d	0.022903645
100	0x3cbfb805	0.023403177
101	0xbd833769	-0.06407053
102	0xbbde3c34	-0.006782079
103	0x3c70877b	0.014680739
104	0x3d022e61	0.03178251
105	0x3bd8dfbe	0.006618469
106	0xbc9c3e72	-0.019072745
107	0x3ca2681e	0.019825038
108	0xbe0f32b8	-0.13984191
109	0x3dc77e66	0.097409055
110	0xbd108212	-0.035280295
111	0x3d200b2d	0.039073158
112	0x3da99868	0.08281022
113	0xbce6f60c	-0.028193496
114	0x3c9f288a	0.01942851
115	0x3c988695	0.018618861
116	0xbbbb1504	-0.0057092924
117	0xbd217674	-0.039419606
118	0xbcbc51c3	-0.022988206
119	0x3cc1a319	0.023637341
120	0x3b362e6a	0.002779866
121	0xbc10ab05	-0.008829837
122	0xbcf27dea	-0.029601056
123	0x3cc5a4be	0.024126407
124	0xbcdfeb2d	-0.02733382
125	0x3c19ae2d	0.009379906
126	0xbbcc8608	-0.0062415637
127	0xbd397c10	-0.04528433

bias f4 [2]
0	0xbd83cea7	-0.064359
1	0xbe003986	-0.12521943

weight f4 [64, 34]
0	0x3dde8c8e	0.108666524
1	0xbe3fb51b	-0.1872143
2	0xbddf5bf9	-0.10906214
3	0xbd98a65f	-0.07453608
4	0x3e37d7a6	0.17953357
5	0x3df1459a	0.117808536
6	0xbe4c687b	-0.19961731
7	0xbd19c34d	-0.03753977
8	0x3cce347b	0.025171509
9	0xbd7378e1	-0.05944145
10	0xbabf81d6	-0.0014610838
11	0xbcabcb30	-0.02097091
12	0xbc9a2822	-0.018817965
13	0xbe3ab7f8	-0.18234241
14	0xbe50f07b	-0.20404236
15	0x3e00adb2	0.1256626
16	0xbde75f86	-0.112975165
17	0x3e0dbad6	0.13840804
18	0xbd473ca5	-0.04864182
19	0x3ce1012c	0.02746638
20	0xbe54140a	-0.2071077
21	0xbeda7638	-0.4266832
22	0x3e6163e3	0.2201076
23	0xbbc97788	-0.0061482824
24	0xbd6ad2b7	-0.05732986
25	0x3dd50fe6	0.10403423
26	0x3c990385	0.018678436
27	0xbe40e1b1	-0.18836094
28	0xbe11191e	-0.14169738
29	0x3e06dffd	0.13171382
30	0x3b6f7e0a	0.003654363
31	0xbe6f89ae	-0.23392364
32	0xbc285c93	-0.010275978
33	0xbcffaa8e	-0.031209257
34	0xbda5fb8e	-0.08104621
35	0xbe5552f2	-0.20832422
36	0x3c2d2541	0.010567964
37	0x3e7a3ea4	0.24437958
38	0x3dfb4f66	0.122710034
39	0x3c477362	0.0121735055
40	0xbd70409f	-0.058655377
41	0xbe9fc311	-0.3120351
42	0xbe2a0118	-0.1660198
43	0xbe473b1a	-0.19456139
44	0x3e540ec6	0.2070876
45	0xbe0beaf8	-0.13663852
46	0xbe37a284	-0.17933089
47	0x3d9ce627	0.076610856
48	0xbdaa8a6f	-0.08327185
49	0xbdc53179	-0.09628577
50	0xbe8879cd	-0.26655427
51	0xbe109500	-0.14119339
52	0xbe7a3fe5	-0.24438436
53	0xbe2beca1	-0.16789486
54	0xbdaad6e1	-0.08341766
55	0xbe70f288	-0.23530018
56	0x3e1fc85f	0.1560378
57	0x3d236a9e	0.0398966
58	0x3e44785a	0.19186535
59	0xbd9f68ec	-0.07783684
60	0xbe866e68	-0.26256108
61	0xbc6f9f29	-0.014625349
62	0xbd017d10	-0.03161341
63	0xbdfcf7a2	-0.1235192
64	0x3e550a49	0.20804705
65	0xbda52bcd	-0.08064995
66	0x3dce7986	0.100817725
67	0xbcf169cc	-0.029469393
68	0xbd6dfca5	-0.05810227
69	0xbe39204e	-0.1807873
70	0xbe196794	-0.14980918
71	0x3e6b704a	0.22992054
72	0xbe85c926	-0.26130027
73	0xbc27e57f	-0.010247587
74	0xbe0a919c	-0.13532108
75	0x3d41b36d	0.047290254
76	0xbdca6352	-0.09882225
77	0x3d5f5f6a	0.054534353
78	0x3d36fb84	0.044673458
79	0x3ea12542	0.31473738
80	0xbd18be08	-0.037290603
81	0xbe02c402	-0.12770084
82	0x3d89e86a	0.067337826
83	0xbe5c78bd	-0.21530433
84	0xbe896cbe	-0.26840776
85	0x3dcb3b47	0.09923416
86	0xbe0d5944	-0.13803583
87	0xbe2a5576	-0.16634163
88	0x3cac4a2b	0.02103146
89	0x3e802349	0.2502692
90	0xbe272418	-0.16322362
91	0xbddd5069	-0.10806353
92	0x3e0a2c66	0.13493499
93	0x3e946a40	0.28987312
94	0x3df68128	0.12036353
95	0x3dafaf8d	0.085784055
96	0x3d4a1435	0.049335677
97	0x3d1ea344	0.03872992
98	0xbe393ad3	-0.18088846
99	0xbce6f0a4	-0.028190918
100	0x3d4f07e8	0.05054465
101	0xbc9a3b01	-0.018826963
102	0x3d9c9c6d	0.07647023
103	0xbd564751	-0.052314106
104	0xbc6fd1b4	-0.014637399
105	0xbd81fda9	-0.0634721
106	0x3df5a7ae	0.11994873
107	0x3e6be286	0.2303563
108	0xbe303dcc	-0.17211074
109	0x3d8f0234	0.06982842
110	0xbd353982	-0.044244297
111	0xbb62c097	-0.0034599656
112	0x3da21e03	0.079158805
113	0xbe03ffce	-0.1289055
114	0x3e671972	0.225683
115	0xbe011feb	-0.12609832
116	0xbe15a90a	-0.14615265
117	0x3eb54e12	0.35411125
118	0x3e02aafd	0.1276054
119	0x3e01cd4f	0.12675975
120	0xbd999b13	-0.07500281
121	0x3e084069	0.1330582
122	0xbdd07107	-0.10177808
123	0x3d46a795	0.048499662
124	0x3ebf0a84	0.3731271
125	0xbe089a51	-0.13340117
126	0x3e17fe8b	0.14843194
127	0x3db3309f	0.08749508
128	0xbdce0b09	-0.100606985
129	0x3cbfb7e2	0.023403112
130	0xba912366	-0.0011073172
131	0xbe3a369d	-0.18184896
132	0xbdc7901d	-0.09744284
133	0xbe5d9930	-0.21640468
134	0x3e187f40	0.14892292
135	0x3ccb2493	0.024797713
136	0xbd76a3fc	-0.06021498
137	0x3d10d3aa	0.03535811
138	0xbbbc61a3	-0.005748944
139	0x3d0b2836	0.033973895
140	0xbe73ca36	-0.23807606
141	0xbcd02fe1	-0.025413455
142	0x3cb53448	0.022119656
143	0x3d82cd02	0.063867584
144	0x3d42ca3b	0.047556143
145	0x3e3569c3	0.17716126
146	0xbe6267c7	-0.221099
147	0xbdb106b1	-0.086438544
148	0x3ccb5a46	0.02482332
149	0xbe589037	-0.21148764
150	0x3df42ede	0.11923002
151	0xbeef940d	-0.4679264
152	0xbe2a149a	-0.16609421
153	0xbd9fe33f	-0.07807016
154	0x3d4b30fa	0.049607255
155	0x3d153677	0.036428895
156	0xbe291761	-0.16512825
157	0xbd9d82b9	-0.07690949
158	0x3da08c8a	0.07839306
159	0xbb4432e2	-0.0029937555
160	0xbdcb4fd7	-0.099273376
161	0xbdca7d2e	-0.098871574
162	0x3d53ea77	0.051737275
163	0xbdaa0d62	-0.08303334
164	0x3e2d5838	0.16928184
165	0x3ca828ba	0.020527232
166	0x3d6bad9e	0.05753862
167	0x3de48768	0.11158639
168	0xbd6b1b81	-0.057399277
169	0xbc8e4628	-0.017367437
170	0x3d36962a	0.0445768
171	0xbe0ff21f	-0.14057206
172	0xbe2747c9	-0.16335978
173	0xbec31ea2	-0.38109308
174	0xbe04fc5d	-0.12986894
175	0xbdff787d	-0.12474153
176	0x3ec0603e	0.37573427
177	0xbe9ba031	-0.30395654
178	0xbd96f5ce	-0.07371102
179	0xbe3000f2	-0.1718786
180	0xbe32e4e7	-0.17470132
181	0xbcb75517	-0.022379441
182	0x3de19a26	0.110157296
183	0xbf0ecbb6	-0.5577959
184	0xbdabbd07	-0.083856635
185	0x3da8974f	0.08231985
186	0x3e997f77	0.2998006
187	0x3dfb8783	0.12281706
188	0xbe1da14f	-0.15393566
189	0x3cd5dec0	0.026107192
190	0x3ec3772e	0.38176864
191	0x3e54d86b	0.20785682
192	0xbd86acdc	-0.06575939
193	0x3ef5b2b2	0.47987896
194	0xbd05ee75	-0.032698113
195	0xbdc3c9c4	-0.09559968
196	0x3e08c18c	0.13355082
197	0xbede6acd	-0.43440858
198	0xbe7efcd5	-0.24901135
199	0x3e3b0355	0.1826299
200	0x3dfed4d5	0.12442938
201	0x3b592b76	0.0033137477
202	0x3c7642b4	0.015030552
203	0x3da485ad	0.08033309
204	0x3d060422	0.032718785
205	0xbe4f70e0	-0.20257902
206	0xbdd45480	-0.103676796
207	0xbdcf1d70	-0.10113037
208	0xbd91bdcd	-0.0711628
209	0x3e823028	0.25427365
210	0xbe8136f7	-0.25237247
211	0xbab69cd3	-0.0013932235
212	0x3dafaa60	0.08577418
213	0x3ccafe43	0.024779445
214	0xbd8e2386	-0.06940369
215	0x3e0585d2	0.1303933
216	0x3e122ad8	0.14274156
217	0x3e7a604c	0.24450797
218	0xbdb88540	-0.090097904
219	0xbe07fa32	-0.13279036
220	0xbe22140a	-0.15827957
221	0x3dd98496	0.10620992
222	0x3e2041ad	0.15650053
223	0x3c65c251	0.014023379
224	0xbdd18364	-0.10230139
225	0xbeb216d9	-0.34783056
226	0x3e45264d	0.19252892
227	0xbe56dc39	-0.20982446
228	0x3d79f1aa	0.061021484
229	0x3e153445	0.1457072
230	0x3e67cafc	0.22636026
231	0x3e0d295c	0.13785309
232	0xb9c4edaf	-0.0003756112
233	0x3d644e75	0.055738885
234	0x3e3bf57f	0.18355368
235	0xbd8cf3fc	-0.06882474
236	0x3c0b0a46	0.008486336
237	0x3e02e02f	0.12780832
238	0x3dffa41d	0.12482474
239	0xbcd157f4	-0.025554635
240	0xb8b9490f	-8.835096e-05
241	0xbc896676	-0.01677249
242	0x3e0b7fc0	0.13622952
243	0x3e69bf7b	0.2282695
244	0xbd41a787	-0.047278907
245	0xbe938edf	-0.2881994
246	0xbe23fe12	-0.16014889
247	0x3e6548ac	0.22391003
248	0xbcd008a7	-0.02539475
249	0x3ddb5789	0.107100554
250	0xbcee584e	-0.029094841
251	0xbe3777b2	-0.17916754
252	0xbd3ca7c9	-0.04605845
253	0x3ea11a36	0.3146531
254	0xbd78b373	-0.06071801
255	0xbe2a5a4f	-0.16636012

bias f4 [64]
0	0xbe65f575	-0.22456916
1	0x3e930e6c	0.2872194
2	0x3e9f8bd9	0.31161383
3	0x3ea7842e	0.32718033
4	0x3f1bb7f6	0.6082758
5	0xbea943df	-0.33059594
6	0x3f214e93	0.6301052
7	0x3ec6124e	0.3868584
8	0x3f138a48	0.57632875
9	0xbe568d70	-0.20952392
10	0xbe876792	-0.26446205
11	0x3e65f37d	0.22456165
12	0x3f150daa	0.58223975
13	0xbe6a4699	-0.22878493
14	0x3e9bd74d	0.304377
15	0x3eda5ca5	0.42648807
16	0x3e95bf8e	0.29247707
17	0xbe315d8d	-0.17320843
18	0x3e614768	0.21999896
19	0x3ecf021b	0.40431294
20	0xbe007b8a	-0.12547126
21	0x3f173b89	0.5907522
22	0xbe42df80	-0.19030571
23	0x3ebb12c5	0.36537758
24	0x3f2127df	0.62951463
25	0xbdc9a4dc	-0.098458976
26	0x3db1d0e4	0.08682421
27	0x3e751691	0.2393439
28	0xbe672f15	-0.22576554
29	0x3e5875c7	0.21138678
30	0x3f02345f	0.5086116
31	0x3ec9fc12	0.39450127
32	0xbcab17e0	-0.020885408
33	0x3ef8e651	0.48613217
34	0xbe5b2a19	-0.21402778
35	0xbe04848c	-0.12941188
36	0xbe9a18e7	-0.30097124
37	0xbef7728f	-0.4832959
38	0x3efa4a47	0.48884794
39	0x3ef4d467	0.478183
40	0x3eac013f	0.335947
41	0x3e7237d2	0.23654106
42	0x3ef21d1e	0.4728784
43	0x3ecaf610	0.39640856
44	0x3f252ea9	0.6452432
45	0xbe11912c	-0.14215535
46	0x3ea7001a	0.32617265
47	0x3f0d76c8	0.5525937
48	0x3e4309ba	0.19046679
49	0x3ecd02e3	0.40041265
50	0xbe47e753	-0.19521837
51	0x3ef1f0f3	0.47254142
52	0x3eb9f30b	0.3631824
53	0x3f24d995	0.64394504
54	0x3f080746	0.531361
55	0x3e95318b	0.2913936
56	0x3f042f41	0.51634604
57	0x3f1931a1	0.5984135
58	0xbe11549f	-0.14192437
59	0x3f313ec2	0.69236386
60	0x3f05d0ba	0.52271616
61	0x3edd1922	0.43183237
62	0x3f3414f5	0.7034448
63	0xbdfaa103	-0.12237742

weight f4 [64, 64]
0	0xbd41254c	-0.04715471
1	0xbdfb278a	-0.12263401
2	0x3d91050c	0.07081041
3	0xbde3939f	-0.11112141
4	0x3dade4c0	0.08490896
5	0xbdd6ad86	-0.10482316
6	0x3d0831d1	0.033250634
7	0xbdebe1c8	-0.11517674
8	0x3daac19b	0.083377086
9	0xbd859c8e	-0.06524001
10	0xbe159b17	-0.14609943
11	0xbd89d65f	-0.06730341
12	0xbdfede6f	-0.124447696
13	0x3db5e260	0.08881068
14	0x3c53d55c	0.012929287
15	0xbdc97351	-0.09836448
16	0xbdf06023	-0.117370866
17	0xbd79e926	-0.061013363
18	0xbd62b632	-0.055349536
19	0xbdd6629d	-0.10468028
20	0x3cdda0c9	0.027054207
21	0xbd742054	-0.059601143
22	0xbb21214d	-0.00245865
23	0x3d4ad0b8	0.049515456
24	0xbdfd05de	-0.12354635
25	0xbe0cde2f	-0.13756631
26	0xbe1878c7	-0.14889823
27	0x3b024f95	0.001988386
28	0x3d850f96	0.064971134
29	0xbdcd53da	-0.10025759
30	0xbd3341ab	-0.043763798
31	0x3d47aece	0.04875069
32	0x3d7bf592	0.06151349
33	0x3d4be118	0.049775213
34	0x3c29b85a	0.010358894
35	0x3b9cda70	0.004786782
36	0xbc73af1e	-0.014873294
37	0x3dbfb5a0	0.09360814
38	0xbcbd7f39	-0.023131954
39	0x3cdc0bd8	0.026861116
40	0xbd391832	-0.04518909
41	0x3d9bb86b	0.07603534
42	0xbe194568	-0.14967883
43	0xbd83ff7f	-0.064452164
44	0xbe20b381	-0.15693475
45	0xbd27ffd2	-0.041015454
46	0xbd7cf4a5	-0.06175675
47	0xbe054695	-0.13015206
48	0xbe21e498	-0.15809858
49	0xbb669208	-0.0035182256
50	0x3d350954	0.04419835
51	0x3d321caf	0.043484386
52	0x3d698021	0.05700696
53	0xbe00d664	-0.12581784
54	0x3d85f45a	0.06540747
55	0x3d84d6cb	0.06486281
56	0xbcf5f58d	-0.030024314
57	0xbe3e53c9	-0.18586649
58	0xbe051942	-0.12997916
59	0xbe1930c6	-0.14960012
60	0xbc407336	-0.011746218
61	0x3d8ba1f7	0.06818002
62	0x3d5628e1	0.05228508
63	0xbda0cccd	-0.07851563
64	0xbde790eb	-0.11306938
65	0x3de25c63	0.110527776
66	0x3da26cff	0.079309456
67	0x3d38179d	0.044944394
68	0x3e9412c6	0.28920573
69	0xbe866b00	-0.2625351
70	0x3e268fe5	0.16265829
71	0x3d4a8bf3	0.049449872
72	0x3e891a82	0.26778036
73	0xbe4cfa8f	-0.20017456
74	0xbc32de16	-0.010917207
75	0x3e064ce5	0.1311527
76	0x3cd1ce23	0.025610989
77	0xbccc0c6b	-0.024908265
78	0x3d68c915	0.05683239
79	0x3e30c8a9	0.17264046
80	0x3e1c78a8	0.15280402
81	0xbe713147	-0.23553954
82	0x3df47b89	0.11937625
83	0x3d3e85c0	0.046514273
84	0x3d9e0e6f	0.07717597
85	0x3db0427e	0.086064324
86	0xbdce9753	-0.100874566
87	0x3e9a0cf4	0.30088007
88	0x3ea987a7	0.33111307
89	0xbd6006c3	-0.05469395
90	0x3e2bfcf9	0.1679572
91	0x3e45ce60	0.19317007
92	0xbdcd2d3f	-0.10018396
93	0x3d4cc917	0.04999646
94	0x3e8cf871	0.27533296
95	0x3e19b677	0.15011011
96	0xbe6d3684	-0.23165327
97	0x3e8f7231	0.2801681
98	0xbd870647	-0.06592994
99	0xbdf7439f	-0.120734446
100	0xbe2f581a	-0.17123452
101	0xbec55436	-0.3854081
102	0x3e061fea	0.13098112
103	0x3e80db65	0.25167385
104	0x3e35b564	0.17744976
105	0x3e2f5f27	0.17126141
106	0x3e03f8ff	0.12887953
107	0x3dde675f	0.1085956
108	0x3e1b39d9	0.15158786
109	0x3e76c660	0.24099112
110	0x3e1f4f32	0.15557554
111	0x3e460315	0.19337113
112	0xba860830	-0.0010225829
113	0x3e83633d	0.2566165
114	0xbdd658c1	-0.10466147
115	0x3e67625d	0.22596116
116	0xbc5cb40f	-0.013470664
117	0x3dd476e8	0.10374242
118	0x3e7fc9d5	0.24979337
119	0x3e152277	0.14563929
120	0x3e622d94	0.22087699
121	0x3e61b99c	0.2204346
122	0x3d8ab5c5	0.06772951
123	0x3deea26e	0.11652075
124	0x3db3bfaa	0.087767914
125	0x3e64934d	0.22321816
126	0x3dee1ae3	0.11626222
127	0xbe2209a7	-0.15823995
128	0xbdc78207	-0.097415976
129	0x3c9a0ec1	0.018805863
130	0x3e6083af	0.21925233
131	0x3dad70da	0.0846879
132	0x3df880b7	0.121339254
133	0xbea36c7a	-0.319187
134	0x3e80b297	0.25136253
135	0x3deba20d	0.11505518
136	0x3d2bfb9f	0.04198801
137	0xbe9cd235	-0.30629125
138	0xbeb3ae56	-0.35093945
139	0x3e32d1a7	0.17462789
140	0x3e5d3a28	0.21604216
141	0x3cac9cf2	0.021070931
142	0x3e1a03ba	0.15040484
143	0x3e29126c	0.16510934
144	0x3e0ebe82	0.1393986
145	0xbe8d5d77	-0.2761037
146	0x3e415326	0.18879375
147	0x3e4fe4bb	0.20302097
148	0x3d485cb1	0.048916522
149	0x3e89453c	0.26810634
150	0xbd29285a	-0.041298248
151	0x3d8f0c0c	0.0698472
152	0x3e4bd585	0.1990567
153	0xbe47c49a	-0.19508591
154	0x3da3636f	0.0797795
155	0x3eafd2e8	0.34340596
156	0xbdbf0cf9	-0.09328646
157	0x3d90d845	0.070725
158	0x3e4742fd	0.19459148
159	0x3c3e40fa	0.011612171
160	0xbe985c2f	-0.2975783
161	0x3ce2ed43	0.027701026
162	0x3d0488dc	0.03235708
163	0xbe5dc6fb	-0.21657936
164	0xbd699333	-0.057025146
165	0xbe839839	-0.25702074
166	0x3dbb6210	0.09149563
167	0x3de77346	0.113012835
168	0x3e10c2bc	0.14136785
169	0xbac7f2e5	-0.0015254883
170	0xbd4526b1	-0.048132602
171	0x3e07c400	0.13258362
172	0x3e61e792	0.22060993
173	0xbca2f398	-0.019891545
174	0x3dc4e156	0.09613292
175	0x3e73b0da	0.23797932
176	0xbd792372	-0.06082482
177	0x3e40246e	0.18763897
178	0xbdbbff42	-0.09179546
179	0x3d11778a	0.035514392
180	0x3dd46826	0.10371427
181	0x3e5cd71d	0.21566434
182	0x3ead8613	0.33891353
183	0xbca9281d	-0.02064901
184	0x3e6db127	0.2321211
185	0x3e534bf9	0.2063445
186	0xbd9d5988	-0.07683092
187	0x3cfe2f62	0.031028453
188	0x3e079ab7	0.13242613
189	0x3dc7c6e1	0.0975473
190	0x3eafe3de	0.34353536
191	0xbe3df125	-0.1854902
192	0xbe0de6e8	-0.13857615
193	0x3d89fd89	0.06737811
194	0x3e8f8290	0.280293
195	0x3e02dc2c	0.12779301
196	0x3eacadcc	0.33726346
197	0xbe8925e1	-0.26786712
198	0x3e4b1f28	0.19836104
199	0x3cbb6ef7	0.02288006
200	0x3decaa9d	0.115559794
201	0xbe273e26	-0.16332301
202	0xbebe9e33	-0.3723007
203	0x3e1d6788	0.15371525
204	0x3e44e2eb	0.19227187
205	0x3cccccba	0.024999965
206	0x3d307fae	0.043090515
207	0x3e737fa3	0.23779158
208	0x3dffde68	0.124935925
209	0xbebf76de	-0.37395376
210	0x3df3344c	0.11875209
211	0x3d97f6ac	0.07420096
212	0xbdf5aae2	-0.11995484
213	0x3dd4b00a	0.10385139
214	0xbce2a5a6	-0.027666878
215	0x3e78d639	0.2430047
216	0x3e25b093	0.16180639
217	0x3ba9a884	0.0051775593
218	0x3df5b4e7	0.11997395
219	0x3e6db709	0.23214354
220	0xbe2376fb	-0.15963356
221	0xba920c63	-0.0011142608
222	0x3e338579	0.17531385
223	0x3db654a0	0.0890286
224	0xbe135f45	-0.14391811
225	0x3d0b4494	0.034000948
226	0xbd8d62b5	-0.069035925
227	0xbe406578	-0.18788707
228	0xbde2a272	-0.1106614
229	0xbeb74c2b	-0.358003
230	0xbd50136d	-0.050799776
231	0x3db5c3f0	0.08875263
232	0xbc05e98c	-0.008173358
233	0x3de16831	0.11006201
234	0xbd5c9321	-0.05385125
235	0x3e49b70f	0.19698738
236	0x3dd88d01	0.10573769
237	0xbd912f15	-0.07089058
238	0x3e0fb4ea	0.14033857
239	0x3de1accd	0.11019287
240	0xbd95df0a	-0.07317932
241	0x3e77534e	0.24152872
242	0xbe922321	-0.28542426
243	0x3e385a0d	0.18003102
244	0x3e10fcd3	0.14158945
245	0x3e4808bd	0.19534583
246	0x3ed8e0bb	0.42358956
247	0x3d66a6fe	0.0563116
248	0x3e267bcd	0.16258164
249	0x3ed02ab3	0.40657577
250	0x3d8243f8	0.0636062
251	0x3e880400	0.26565552
252	0x3e1e36b1	0.1545055
253	0x3e8e3640	0.27775764
254	0x3ea0cef7	0.31407902
255	0xbdd93059	-0.10604925

bias f4 [64]
0	0x3cf8c33f	0.030366538
1	0x3ed0d478	0.407871
2	0x3f0e8f77	0.5568766
3	0x3ee98241	0.45607188
4	0x3da6564a	0.08121927
5	0xbe8ec181	-0.27882007
6	0xbed29bb4	-0.41134417
7	0x3ef45a67	0.47725222
8	0x3f06eec2	0.52708066
9	0x3f0599c3	0.52187747
10	0x3efa6e26	0.48912162
11	0x3dd2ddb1	0.102961905
12	0x3ef64cd2	0.48105484
13	0x3f0a440d	0.5401009
14	0x3ca95af1	0.020673247
15	0x3c44c76a	0.012010435
16	0x3e1c217f	0.15247153
17	0x3d36c51c	0.044621572
18	0x3ead1664	0.33806145
19	0x3f033984	0.51259637
20	0x3f12a88c	0.5728843
21	0x3f056d41	0.52119833
22	0x3f164c07	0.5870976
23	0x3e2707cb	0.16311567
24	0x3ef1264e	0.47099537
25	0xbed09c9d	-0.40744486
26	0xbbf26fc6	-0.0073985783
27	0x3d9f4970	0.07777679
28	0x3ebbe3f2	0.36697346
29	0xbe86f8da	-0.26361734
30	0x3dc55a5b	0.096363746
31	0x3ebe22ad	0.3713583
32	0x3e2bda07	0.1678239
33	0x3e0e72a4	0.1391092
34	0x3d545647	0.051840093
35	0x3f0e7ef9	0.55662495
36	0x3eb7b891	0.35883
37	0x3ef2ad8a	0.47398025
38	0x3da1b4c3	0.07895806
39	0x3ef2934f	0.47378013
40	0x3ef76faa	0.4832738
41	0x3f01aae4	0.50651383
42	0x3e34d64c	0.17659873
43	0x3ecc72a2	0.39931208
44	0x3ee4c237	0.44679424
45	0x3f019f80	0.50634
46	0x3eb0fb68	0.34566808
47	0x3d230f8f	0.03980976
48	0x3e04b2cb	0.12958829
49	0x3ecb4044	0.39697468
50	0x3ec1efd1	0.37878278
51	0x3e6fa327	0.23402081
52	0x3ec49ce9	0.38400963
53	0x3e4fed15	0.20305283
54	0x3ec94a3c	0.3931445
55	0x3df72f86	0.12069611
56	0xbec2d047	-0.38049528
57	0x3eb8d19c	0.3609742
58	0xbc1873c8	-0.009304948
59	0x3ec97dfa	0.39353925
60	0x3dc1e1b3	0.09466877
61	0x3f0e41a8	0.55568933
62	0x3db43073	0.087983035
63	0x3daaabfd	0.083335854

weight f4 [1, 64]
0	0xbd999521	-0.07499147
1	0x3e74f806	0.23922738
2	0x3eb006cb	0.34380183
3	0x3e95cf4c	0.29259717
4	0xbef8e670	-0.4861331
5	0xbeedb52c	-0.46427286
6	0xbf1d2362	-0.61382115
7	0x3e81fef7	0.25389835
8	0x3e961f5f	0.2932081
9	0x3e9f6f0c	0.3113941
10	0x3eaad281	0.33363727
11	0xbed0f5fa	-0.40812665
12	0x3e8e3d5f	0.27781197
13	0x3ec2a043	0.38012895
14	0xbefaba02	-0.48970038
15	0xbf08e8df	-0.53480333
16	0xbf1cbf8f	-0.61229795
17	0xbc932ac0	-0.01796472
18	0x3e87dc6c	0.26535356
19	0x3ebbad88	0.3665583
20	0x3ec0b061	0.37634566
21	0x3e9f50f9	0.31116465
22	0x3e7738f1	0.24142815
23	0xbf3a3438	-0.7273593
24	0x3e6542cf	0.22388767
25	0xbf813d9d	-1.0096928
26	0xbee40ca4	-0.44540894
27	0xbeb5bb14	-0.35494292
28	0x3ead019f	0.337903
29	0xbf2fd627	-0.68686146
30	0xbedac2ed	-0.42726842
31	0x3ebaed8c	0.3650936
32	0xbeff3e0c	-0.49852026
33	0xbee8767a	-0.4540289
34	0xbef18745	-0.47173515
35	0x3e747ed3	0.23876505
36	0x3ee2d337	0.4430177
37	0x3ea7b158	0.3275249
38	0xbef7e26b	-0.4841493
39	0x3e9d54c6	0.3072874
40	0x3ea1e4af	0.31619784
41	0x3ef5b8de	0.47992605
42	0xbecabfd5	-0.3959948
43	0x3ebf356e	0.3734545
44	0x3edaf966	0.427684
45	0x3e8ca39e	0.2746858
46	0x3eb2a5c6	0.348921
47	0xbf0948eb	-0.5362689
48	0xbf3997ff	-0.7249755
49	0x3e68580b	0.22689836
50	0x3ea5779e	0.32317823
51	0xbedfffbe	-0.43749803
52	0x3e8ac021	0.27099708
53	0xbf2708b4	-0.65247655
54	0x3ebe0b42	0.37117964
55	0xbec0524d	-0.3756279
56	0xbf0d86c1	-0.55283743
57	0x3e9977ba	0.29974157
58	0xbf0d0c50	-0.5509691
59	0x3e87040c	0.26370275
60	0xbeaf911b	-0.34290394
61	0x3ec0d875	0.37665144
62	0xbedcc2cd	-0.4311737
63	0xbf1386b8	-0.5762744

weight f4 [64, 34]
0	0x3dce96dc	0.10087368
1	0xbdf7a49e	-0.12091945
2	0x3d01e591	0.031713072
3	0xbe99ec19	-0.3006294
4	0x3e648762	0.2231727
5	0x3de389d4	0.11110273
6	0xbe9b977e	-0.30389017
7	0xbdaa47ff	-0.083145134
8	0xbdd52e10	-0.10409176
9	0x3dd1a25d	0.102360465
10	0x3d96078e	0.0732566
11	0x3ca2361a	0.019801188
12	0xbe1a51e9	-0.15070309
13	0x3de998be	0.114060864
14	0xbdb5e21d	-0.08881018
15	0x3d952339	0.07282109
16	0xbe495a9b	-0.1966347
17	0xbced19db	-0.028942993
18	0x3e170905	0.14749534
19	0x3d5d0dc7	0.053968217
20	0xbc4f7e44	-0.012664381
21	0xbee04d52	-0.4380899
22	0x3e0288e0	0.12747526
23	0xbe8bbe0a	-0.27293426
24	0x3a9ea6f1	0.0012104196
25	0x3ea2a32b	0.31765112
26	0xbddeb120	-0.10873628
27	0xbdb79324	-0.08963612
28	0x3dc681ec	0.096927494
29	0xbde335d6	-0.11094253
30	0x3deff49c	0.117165774
31	0xbe45c776	-0.1931437
32	0x3d3d59ae	0.046228103
33	0xbbc9f83e	-0.006163626
34	0xbdbd4b6f	-0.092429034
35	0x3d7dc188	0.061952144
36	0x3e935544	0.2877599
37	0x3e91a350	0.2844491
38	0x3e21ebb1	0.15812565
39	0x3e0fffb5	0.14062388
40	0xbe7ce9d8	-0.2469858
41	0xbe545233	-0.20734482
42	0xbd043516	-0.03227719
43	0x3d675395	0.056476194
44	0x3e808da3	0.2510806
45	0x3d7e4d33	0.06208534
46	0x3e4a43c0	0.19752407
47	0xbe05c704	-0.130642
48	0x3e883f2e	0.26610702
49	0x3d07adc0	0.033124685
50	0x3e095521	0.1341138
51	0x3e6ec032	0.23315504
52	0x3d4c7e54	0.049925163
53	0x3cc38af5	0.02386997
54	0xbe5b6e28	-0.2142874
55	0xbe3a47a4	-0.18191391
56	0x3e6d74d3	0.23189096
57	0xbcea4ec7	-0.028602017
58	0xbe0eda66	-0.139505
59	0x3d68da6a	0.05684892
60	0xbe6a570f	-0.22884773
61	0x3d39484c	0.045234963
62	0xbe3f9115	-0.18707688
63	0xbd37b7fb	-0.04485319
64	0xbcab5450	-0.020914227
65	0xbe720710	-0.23635507
66	0x3e5d7669	0.21627201
67	0xbd84e92b	-0.06489786
68	0x3c917e46	0.017760407
69	0xbe33ab54	-0.17545825
70	0xbd461ec6	-0.04836919
71	0xbe3e298c	-0.18570536
72	0xbe232a51	-0.15934111
73	0xbd4c6c87	-0.049908187
74	0xbd54047f	-0.0517621
75	0xbdd02205	-0.10162739
76	0x3e455bf8	0.19273365
77	0x3d7b5553	0.06136067
78	0xbe9ddbe7	-0.30831835
79	0xbe055c64	-0.13023525
80	0x3e7b9754	0.24569446
81	0xbcb9c03b	-0.02267467
82	0x3eb5fa6e	0.35542625
83	0xbc89364f	-0.01674953
84	0x3eb7e81b	0.3591927
85	0x3e4d3439	0.20039453
86	0xbe409a3d	-0.18808837
87	0xbe24c105	-0.16089256
88	0xbd6f9ed1	-0.05850107
89	0xbd058905	-0.032601375
90	0x3e045e01	0.12926485
91	0xbebe9492	-0.37222725
92	0x3e6bec6e	0.2303941
93	0x3e81bad5	0.25337854
94	0xbeccff70	-0.40038633
95	0xbdc292e5	-0.09500674
96	0x3d8bbc80	0.06823063
97	0xbcdb138c	-0.02674272
98	0x3e035d97	0.1282867
99	0x3ab4ad3c	0.0013784538
100	0x3db51f28	0.08843833
101	0x3bf5e6e6	0.007504332
102	0x3da647f8	0.08119196
103	0xbd2f4b47	-0.0427964
104	0x3d9bdd6b	0.076105915
105	0xbecd5042	-0.40100294
106	0xbe2bc1b3	-0.16773109
107	0xbdad4473	-0.08460321
108	0xbe2718b4	-0.16318017
109	0xbd1cd669	-0.038290415
110	0xbe6b3b40	-0.22971821
111	0xbe3280c5	-0.17431934
112	0x3dca30a2	0.09872557
113	0xbe07dd27	-0.13267957
114	0x3ddd54f8	0.10807222
115	0x3e07ac4b	0.13249318
116	0xbda31b31	-0.07964171
117	0x3e829dad	0.25510922
118	0xbd54c906	-0.051949523
119	0x3e618e29	0.22026886
120	0xbe09f086	-0.13470659
121	0xbea83f17	-0.32860634
122	0xbd1f7b3d	-0.03893589
123	0x3daae580	0.08344555
124	0x3dd6b8f9	0.104844995
125	0xbdc8b17f	-0.0979948
126	0x3e686524	0.22694832
127	0x3e4a35ba	0.19747058
128	0xbe449995	-0.19199212
129	0x3e1a59f9	0.15073384
130	0xbc727bcd	-0.014800024
131	0x3d89502d	0.067047454
132	0x3e028661	0.12746574
133	0x3c0884cf	0.008332445
134	0x3dc06d8d	0.09395895
135	0xbca7958a	-0.020457048
136	0x3d8abc73	0.06774225
137	0x3d5f1db5	0.05447169
138	0xbd69b556	-0.0570577
139	0x3d7cd88a	0.061729945
140	0xbe46f7a6	-0.19430408
141	0xbd09d34d	-0.033648778
142	0x3b20d39f	0.0024540199
143	0x3ccc61d3	0.02494899
144	0x3e044459	0.12916698
145	0x3dec0ecc	0.1152626
146	0x3e3099a4	0.17246109
147	0xbe5878e5	-0.21139868
148	0xbe84ab03	-0.25911722
149	0x3e148785	0.14504822
150	0xbcae7749	-0.021297114
151	0x3c6d2408	0.014473923
152	0xbe93c9b9	-0.2886484
153	0xbc24e65a	-0.010064686
154	0x3e7d901b	0.24762003
155	0x3e05ca16	0.13065371
156	0x3c8a2869	0.016864972
157	0x3de08570	0.10962951
158	0x3d26030e	0.040530257
159	0x3e1151e9	0.14191402
160	0x3e06296c	0.13101739
161	0xbdb3cd37	-0.08779376
162	0x3dfc87fc	0.123306245
163	0x3df39b39	0.11894841
164	0x3d2db35d	0.042407382
165	0xbe046642	-0.12929633
166	0x3e4df098	0.2011131
167	0x3cd2317e	0.025658365
168	0xbc874e4e	-0.01651683
169	0x3d949d40	0.072565556
170	0x3d4d1ab9	0.050074313
171	0x3e1c897b	0.1528682
172	0x3e308a13	0.17240171
173	0xbe516d54	-0.20451862
174	0x3e5a258e	0.21303388
175	0xbe0b859e	-0.1362519
176	0x3e4cb341	0.19990255
177	0x3dac888a	0.0842448
178	0xbb406e00	-0.002936244
179	0xbe1908f9	-0.14944829
180	0xbc823bad	-0.015897596
181	0x3dc7489e	0.097306475
182	0x3e9c0f03	0.30480203
183	0xbe697a1e	-0.2280049
184	0x3dc00d4f	0.093775384
185	0x3ebef4dc	0.37296188
186	0x3eab1d5d	0.3342084
187	0x3e1cabf8	0.15299976
188	0x3c754876	0.014970889
189	0xbd506a99	-0.05088291
190	0xbe9e8d7c	-0.3096732
191	0xbce25881	-0.027630093
192	0x3ce51622	0.027964655
193	0xbde388c2	-0.11110069
194	0xbe58e3b9	-0.2118062
195	0x3d8bef1e	0.06832717
196	0xbdb21fe7	-0.08697491
197	0xbdc5929c	-0.09647104
198	0x3ef42435	0.47683874
199	0x3e0305bf	0.1279516
200	0x3e1fb8dd	0.15597863
201	0xbb2ccb7c	-0.0026366403
202	0xbdc5d060	-0.09658885
203	0x3d2ef478	0.042713612
204	0x3d59458b	0.053044837
205	0x3c6b05cd	0.014344645
206	0xbd43cc47	-0.047802236
207	0x3d4da39b	0.050204854
208	0xbe196c88	-0.14982808
209	0xbd9e293d	-0.07722709
210	0xbd2d52de	-0.042315356
211	0xbe088975	-0.13333686
212	0x3c5c0ea9	0.01343123
213	0x3ea3edc7	0.32017347
214	0xbe376191	-0.17908312
215	0x3e8caebe	0.27477068
216	0x3e1cd1a1	0.15314342
217	0xbde6968f	-0.112591855
218	0xbe48fab3	-0.19626884
219	0xbe5a64d5	-0.21327527
220	0xbf13a95d	-0.576803
221	0xbe14b30f	-0.1452143
222	0xbd3e8da9	-0.046521816
223	0xbdd09903	-0.10185435
224	0xbe58c2c9	-0.21168055
225	0x3deb2622	0.11481883
226	0xbdab8232	-0.08374442
227	0xbb3fa8de	-0.002924494
228	0x3cd903b2	0.02649102
229	0xbde530a8	-0.11190921
230	0xbdc4f3b8	-0.09616798
231	0x3e6ce098	0.2313255
232	0xbc129818	-0.008947395
233	0x3d814cf3	0.06313505
234	0x3dc8d5de	0.09806417
235	0x3b53b3e8	0.0032303277
236	0xbc9160a4	-0.017746277
237	0x3d5ba75c	0.053626403
238	0x3d63f3da	0.055652477
239	0xbdf49326	-0.11942129
240	0x3dc6247e	0.09674929
241	0x3d139d92	0.036038943
242	0xbcd7eb5b	-0.026357343
243	0x3d24d668	0.040243536
244	0x3e372e18	0.17888677
245	0x3ead5d40	0.33860207
246	0x3d0affe2	0.033935435
247	0x3dc3a0b5	0.09552137
248	0x3c896f19	0.016776608
249	0x3d02e19f	0.03195345
250	0x3e703eef	0.23461507
251	0x3e2db697	0.16964184
252	0xbd6c83f6	-0.057743035
253	0x3d018552	0.031621285
254	0x3e278514	0.16359359
255	0x3e6ab443	0.22920327
