l2r/baselines/checkpoints/lvms/sac_episode_1000.pt (torch, 88611 bytes, 18 tensors)

weight f4 [64, 32]
-0.18653412 0.15418419 -0.26265398 -0.17302378 -0.10382364 -0.1648849 -0.027553111 0.16701521
-0.009853662 -0.06336323 0.15921088 -0.023282422 -0.07222382 0.0014127234 0.060205758 -0.13046208
-0.16881718 0.32796568 -0.2720202 0.031618427 -0.10082485 0.10016492 -0.070402086 0.10387539
0.015853036 -0.12749426 -0.010496381 -0.080916926 -0.09654356 0.08306963 -0.15587239 0.12621297
-0.3600837 -0.08523815 -0.09615583 -0.14803159 -0.04651146 0.2155879 0.109860025 0.05827306
-0.014253622 0.073474154 0.07130953 -0.08459203 -0.0027389303 -0.005673424 0.26679596 -0.042921126
0.1131065 0.036296416 0.06375379 -0.029762715 0.0971675 -0.031641245 0.059525803 -0.035164095
0.18940775 -0.055290196 -0.045903586 0.07584532 0.0016288022 0.096337594 0.026027305 -0.0109223
0.038102053 0.19803011 -0.09186339 -0.00087453896 0.05101308 0.15892354 -0.30096638 -0.10319173
0.1357577 0.26172987 0.11830011 -0.052404787 0.038363717 -0.086776026 0.017133487 -0.08079365
-0.11193817 0.12654778 0.14629377 -0.2749127 -0.15396038 -0.024699979 -0.030774666 -0.13308083
0.11517962 -0.066013984 0.027283372 0.10313152 0.10463921 -0.018658986 -0.17443804 0.08090639
0.2707642 -0.059198666 -0.13521591 -0.05697256 0.06257357 0.009738968 -0.06343934 -0.25609386
0.00707228 -0.23799282 -0.16382775 -0.016242368 0.07580214 -0.046124734 -0.10250031 0.03740842
-0.15565474 0.16134551 0.14747798 -0.21633531 -0.123109855 0.03231755 -0.0075082313 -0.050497837
0.16795291 -0.21349467 -0.0042619347 0.051798098 -0.061857022 -0.15070307 -0.20165679 -0.014953781
0.3166134 -0.3314201 -0.08103354 0.06949218 -0.040334817 -0.015579152 0.15175022 -0.11044466
0.06325704 0.13140714 0.15686151 0.025704158 0.039094836 0.01306206 0.031061469 0.05140448
-0.35738 -0.02609778 0.020098887 0.25191665 -0.17685558 -0.084434174 -0.19074103 -0.30265382
-0.10272176 -0.06342959 0.0020546252 -0.43099654 -0.032243147 -0.033620182 -0.07134843 -0.19889823
0.10188908 0.09172927 -0.106696256 -0.087122895 0.06197418 0.03996226 -0.15896937 0.02209238
-0.04782159 -0.038432278 0.2447433 -0.033714432 0.25894 0.033390347 -0.25184378 0.00017062214
0.03346599 -0.08129477 0.12957142 -0.2617668 -0.12607394 0.03330901 0.15287158 0.12211333
0.121667944 -0.08705852 -0.038578764 0.047842033 -0.030938745 -0.026156988 0.12936284 0.19058599
-0.11544136 0.03587298 0.119008444 -0.038533177 -0.053730294 0.13237643 0.090939835 -0.12698527
0.031196514 0.33615884 0.043079153 -0.07630959 0.010491483 0.063822895 0.043497775 0.016374646
0.006045924 0.21009687 0.08880039 -0.08020605 0.2916188 -0.14908265 0.08005885 -0.08949952
-0.15297505 0.22497867 0.025400652 -0.21022943 -0.005543862 0.46631065 0.18114193 -0.028762965
-0.054738704 0.17612989 -0.07104992 -0.10401227 -0.09883937 0.10749367 -0.22319524 0.29064047
-0.045327865 0.24457973 0.21936797 -0.106329404 0.11324517 0.012394115 -0.18386078 -0.026209015
0.0960216 0.020503104 0.052327752 0.06413566 -0.15506658 0.03181471 -0.11387638 -0.09647757
0.076977886 -0.076123014 0.033871938 0.27890772 0.07636171 0.006347509 0.082917705 0.028055895
00000000: cd02 3fbe 76e2 1d3e 957a 86be 252d 31be
00000010: 7da1 d4bd 96d7 28be 10b7 e1bc 0906 2b3e
00000020: 4171 21bc 95c4 81bd 2d08 233e c7ba bebc
00000030: 15ea 93bd 222b b93a 509a 763d da97 05be
00000040: 69de 2cbe 1eeb a73e 3b46 8bbe 5382 013d
00000050: 427d cebd 4423 cd3d f82e 90bd 9fbc d43d
00000060: 3ade 813c db8d 02be 03f9 2bbc c6b7 a5bd
00000070: a1b8 c5bd 6920 aa3d 039d 1fbe f93d 013e
00000080: e45c b8be 5791 aebd 59ed c4bd 9895 17be
00000090: cd82 3ebd 13c3 5c3e 4bfe e03d bbaf 6e3d
000000a0: 0688 69bc 9e79 963d bb0a 923d 963e adbd
000000b0: a07f 33bb 21e8 b9bb 7b99 883e 10ce 2fbd
000000c0: 61a4 e73d 8dab 143d 5991 823d f0d0 f3bc
000000d0: c1ff c63d 409a 01bd 54d1 733d 3a08 10bd
000000e0: 1bf4 413e f977 62bd 6605 3cbd cb54 9b3d
000000f0: 887d d53a a54c c53d 3737 d53c 72f3 32bc
00000100: e610 1c3d 68c8 4a3e df22 bcbd 5141 65ba
00000110: 17f3 503d dabc 223e 4418 9abe 3056 d3bd
00000120: 1104 0b3e 7501 863e 5447 f23d 67a6 56bd
00000130: 4623 1d3d a1b7 b1bd 875b 8c3c 2477 a5bd
00000140: d73f e5bd be95 013e 09ce 153e 5bc1 8cbe
00000150: caa7 1dbe 9c57 cabc 271b fcbc 5746 08be
00000160: 4be3 eb3d 5732 87bd 6181 df3c 9e36 d33d
00000170: 154d d63d bbda 98bc e39f 32be 40b2 a53d
00000180: 9ba1 8a3e 4d7a 72bd 0a76 0abe 0f5c 69bd
00000190: 9226 803d 3190 1f3c 7cec 81bd bc1e 83be
000001a0: 96be e73b 64b4 73be 76c2 27be b70e 85bc
000001b0: 273e 9b3d 4aed 3cbd afeb d1bd 9239 193d
000001c0: f563 1fbe c237 253e 7804 173e 0187 5dbe
000001d0: 0521 fcbd 685f 043d 9c07 f6bb d2d6 4ebd
000001e0: d9fb 2b3e 599e 5abe b3a7 8bbb 3e2a 543d
000001f0: ca5d 7dbd e851 1abe 1e7f 4ebe b400 75bc
00000200: 271b a23e e5af a9be eaf4 a5bd eb51 8e3d
00000210: 1f36 25bd b33f 7fbc 6964 1b3e cf30 e2bd
00000220: e88c 813d 988f 063e 4ea0 203e 8791 d23c
00000230: e821 203d 4002 563c 9f74 fe3c 818d 523d
00000240: 83fa b6be 03cb d5bc 6ca6 a43c 38fb 803e
00000250: a119 35be d3eb acbd 9e51 43be 71f5 9abe
00000260: c95f d2bd 5fe7 81bd e4a6 063b 94ab dcbe
00000270: 6411 04bd 51b5 09bd 201f 92bd faab 4bbe
00000280: 39ab d03d 8edc bb3d 9183 dabd 7d6d b2bd
00000290: a3d8 7d3d 77af 233d dec8 22be 14fb b43c
000002a0: 92e0 43bd 2a6b 1dbd fd9d 7a3e 2518 0abd
000002b0: c993 843e 51c4 083d abf1 80be 08e9 3239
000002c0: a213 093d df7d a6bd 5fae 043e 4c06 86be
000002d0: 8719 01be 076f 083d 5e8a 1c3e 8e16 fa3d
000002e0: 0b2d f93d bd4b b2bd c404 1ebd 02f6 433d
000002f0: 4073 fdbc 2e47 d6bc b177 043e f928 433e
00000300: 856c ecbd 8cef 123d b3ba f33d f7d4 1dbd
00000310: 4c14 5cbd b08d 073e aa3e ba3d 6d08 02be
00000320: d58f ff3c 031d ac3e c473 303d 3448 9cbd
00000330: 78e4 2b3c 94b5 823d b92a 323d 1f24 863c
00000340: e31c c63b a223 573e fbdc b53d 1243 a4bd
00000350: 0f4f 953e 1fa9 18be e5f5 a33d 864b b7bd
00000360: 7ea5 1cbe cf60 663e 0715 d03c 6246 57be
00000370: 49a9 b5bb 45c0 ee3e 457d 393e 4fa0 ebbc
00000380: b135 60bd 655b 343e 9f82 91bd 6304 d5bd
00000390: 4c6c cabd a425 dc3d 4b8d 64be d4ce 943e
000003a0: b6a9 39bd 1c73 7a3e ffa1 603e 3bc3 d9bd
000003b0: 15ed e73d b010 4b3c 0046 3cbe 4ab4 d6bc
000003c0: f9a6 c43d 20f6 a73c a055 563d 8f59 833d
000003d0: c6c9 1ebe 2450 023d 0538 e9bd 0896 c5bd
000003e0: 95a6 9d3d 62e6 9bbd 4dbd 0a3d fecc 8e3e
000003f0: 8763 9c3d c4fe cf3b c2d0 a93d 7ad5 e53c

bias f4 [64]
-0.10603217 -0.028017923 -0.04377517 0.11942492 0.0405537 0.014995518 -0.045318443 -0.14974381
0.35172674 0.04695415 -0.20912535 0.08430285 0.07387505 -0.008062827 -0.14209667 0.081014246
0.1578608 0.27055943 -0.15986457 0.01899941 -0.11504693 -0.078147575 0.13578604 0.22236034
-0.1907143 0.09928215 0.21068604 -0.020648487 0.00543357 -0.10935663 0.05717108 -0.18026252
-0.03643798 -0.041791126 -0.26154357 0.0330926 -0.008943685 -0.0050278115 -0.08836329 0.11543155
-0.2176792 -0.09317144 0.07182507 -0.15997566 0.23830158 -0.17031232 -0.060367715 -0.029949022
0.014578086 0.036250237 -0.011635202 0.08421145 -0.18330055 0.13519593 -0.02213866 0.0009820206
0.24383217 0.23927334 0.0048793233 0.021192482 0.31637803 0.017300416 0.00047080315 -0.16201076
00000000: 6527 d9bd d885 e5bc 984d 33bd 0d95 f43d
00000010: a31b 263d c3af 753c d59f 39bd 7156 19be
00000020: 8715 b43e ff52 403d f524 56be f9a6 ac3d
00000030: cd4b 973d f319 04bc ca81 11be ccea a53d
00000040: 43a6 213e c486 8a3e 8ab3 23be a7a4 9b3c
00000050: ba9d ebbd d60b a0bd 7f0b 0b3e 6eb2 633e
00000060: 9c4a 43be 7154 cb3d 15be 573e 0427 a9bc
00000070: 170c b23b 5ef6 dfbd 392c 6a3d bd96 38be
00000080: fe3f 15bd 2c2d 2bbd 0ae9 85be 1b8c 073d
00000090: 8988 12bc 57c0 a4bb d0f7 b4bd 6067 ec3d
000000a0: 4ce7 5ebe abd0 bebd 0619 933d a9d0 23be
000000b0: 5405 743e 5a66 2ebe 2344 77bd a757 f5bc
000000c0: edd8 6e3c 217b 143d 93a1 3ebc 0d77 ac3d
000000d0: 24b3 3bbe cd70 0a3e 235c b5bc 25b7 803a
000000e0: 24af 793e 1204 753e bbe2 9f3b db9b ad3c
000000f0: 4dfc a13e 9ab9 8d3c 21d6 f639 26e6 25be

weight f4 [64, 64]
-0.11425131 0.06688272 -0.103682 -0.12827526 -0.2702505 -0.10716879 0.06945908 -0.16340867
0.14669046 -0.10455648 -0.11849078 -0.13050136 -0.03026811 -0.095029004 0.23648454 0.20511714
0.085702784 -0.093900494 -0.051930383 -0.13810489 -0.3555468 -0.07433531 -0.1497584 -0.06355905
0.06749453 -0.09119158 0.10619878 0.18413243 -0.22166465 0.06293145 -0.19532716 -0.069276705
-0.17624004 -0.03213963 0.04042339 -0.30201975 -0.29573464 0.027769763 -0.057588708 0.18299173
-0.23805748 -0.039442487 0.05001319 0.07610523 -0.23544076 -0.2528801 -0.23780303 -0.09860753
-0.1699174 0.08712619 -0.19037235 0.12204842 -0.095351174 -0.030326366 0.07261541 -0.048741054
0.15705676 0.1873503 -0.13455209 -0.03440116 0.13718598 0.022748092 -0.27999088 0.09642407
-0.023268977 -0.10985378 0.053926867 0.14648482 0.003887429 0.0096667595 -0.2520216 0.08126498
-0.1200548 0.06672008 -0.042755745 0.11766859 -0.020882096 -0.15183644 -0.13575573 0.030311381
-0.17167094 0.077047385 0.10364113 0.04955278 -0.2557757 -0.14948308 0.020818647 0.096486434
0.0010293163 -0.20393132 0.06742127 -0.029618485 -0.015098364 0.13314866 -0.040721834 0.043498866
-0.37209535 -0.04156747 -0.07443712 0.018201202 0.10055176 -0.16920748 0.045533907 0.06377497
0.10137506 -0.026129818 -0.22107787 -0.12190409 0.12061674 -0.028009644 0.052266397 0.034386747
0.015877353 -0.072750695 0.03402147 -0.03132762 0.09374377 0.07833525 -0.07535609 -0.08341702
-0.03776744 -0.0067078914 -0.060921356 0.20106645 0.19537012 0.011231525 0.100357324 0.05166814
-0.051626027 -0.13699871 0.11751204 -0.037967473 0.09479044 -0.0131978905 0.055225227 -0.25437224
-0.03746084 -0.26914623 -0.12125325 0.100985125 -0.015230156 -0.12159943 -0.34126756 -0.0050426684
0.24167141 -0.055437677 -0.10433721 0.020788155 -0.1617749 -0.18225421 0.12507293 -0.037400972
-0.11105443 -0.0801814 -0.09722562 0.041266568 -0.07802941 -0.2684532 0.16043669 0.05575451
-0.0018183688 -0.18176453 -0.2694261 0.19454408 0.02049643 -0.18587838 0.12798427 0.19460836
-0.04003933 0.08365237 -0.06501044 0.18249346 0.1038791 -0.14849605 -0.042511266 -0.14465107
-0.18103674 0.22318536 -0.010753328 -0.051372774 -0.16636445 0.12710963 -0.06505126 -0.023612244
-0.0017127065 -0.11133951 0.043340202 -0.16791533 -0.1438147 -0.14861047 -0.036630943 -0.10562577
-0.11989208 -0.16790703 0.022542397 -0.1415491 0.03621603 0.031235287 0.007282986 0.03847115
-0.14908198 0.06892703 0.037593905 -0.098494984 -0.04860643 -0.07573294 -0.07398634 -0.032683685
-0.1101055 0.11584714 0.060953267 -0.060138218 -0.13397412 -0.05813271 -0.06875876 0.039274838
-0.018441329 -0.06859438 -0.02593492 -0.06880211 -0.14424197 -0.14026709 -0.06960696 0.011795247
-0.10038507 0.05714311 -0.029461093 -0.10609056 -0.03892341 -0.075839065 -0.046450563 0.04740121
-0.04996202 0.066267006 -0.034442425 -0.11701805 0.06583661 -0.08323796 -0.028402645 -0.048047833
0.01930598 -0.1340817 -0.043290593 -0.06222484 0.0569759 0.02688967 0.014492415 0.027439438
-0.1178612 -0.07705365 0.05169137 -0.16182688 -0.09840476 -0.002231618 -0.053274874 0.0067807217
00000000: 97fc e9bd cff9 883d 3a57 d4bd 975a 03be
00000010: 465e 8abe 507b dbbd 9040 8e3d 9a54 27be
00000020: 0636 163e b521 d6bd 4bab f2bd 26a2 05be
00000030: d4f4 f7bc 919e c2bd 0129 723e 3a0a 523e
00000040: f184 af3d e74e c0bd f4b4 54bd 5e6b 0dbe
00000050: 3b0a b6be 1c3d 98bd 445a 19be 3f2b 82bd
00000060: 923a 8a3d a7c2 babd bf7e d93d 368d 3c3e
00000070: 0ffc 62be 34e2 803d d803 48be f2e0 8dbd
00000080: 4578 34be d8a4 03bd ff92 253d 55a2 9abe
00000090: 886a 97be 6a7d e33c 23e2 6bbd 2f62 3b3e
000000a0: 57c5 73be 728e 21bd a1da 4c3d 0fdd 9b3d
000000b0: 6217 71be 8079 81be a382 73be bff2 c9bd
000000c0: d4fe 2dbe 376f b23d f8f0 42be 86f4 f93d
000000d0: 7a47 c3bd 006f f8bc 63b7 943d b3a4 47bd
000000e0: 7dd3 203e c2d8 3f3e 06c8 09be 3be8 0cbd
000000f0: 7b7a 0c3e 355a ba3c f75a 8fbe fc79 c53d
00000100: 959e bebc 05fb e0bd 6be2 5c3d 1e00 163e
00000110: 3cc4 7e3b 5461 1e3c fa08 81be 416e a63d
00000120: 4adf f5bd 8aa4 883d a620 2fbd 3bfc f03d
00000130: ee10 abbc 037b 1bbe 8d03 0bbe 934f f83c
00000140: 82ca 2fbe 05cb 9d3d cd41 d43d dbf7 4a3d
00000150: 08f5 82be 1812 19be de8b aa3c ae9a c53d
00000160: 20ea 863a 5fd3 50be 2a14 8a3d 77a2 f2bc
00000170: 215f 77bc 1f58 083e f0cb 26bd de2b 323d
00000180: 4883 bebe a742 2abd 7d72 98bd b01a 953c
00000190: 15ee cd3d ba44 2dbe c381 3a3d 749c 823d
000001a0: ba9d cf3d 330e d6bc 3d62 62be daa8 f9bd
000001b0: e905 f73d 7b74 e5bc 4a15 563d 1ed9 0c3d
000001c0: 3911 823c 51fe 94bd 195a 0b3d 6451 00bd
000001d0: bcfc bf3d 3b6e a03d 4b54 9abd 8bd6 aabd
000001e0: 08b2 1abd dfcd dbbb ac88 79bd 5de4 4d3e
000001f0: 1b0f 483e 6e04 383c 2488 cd3d f9a1 533d
00000200: d075 53bd 6449 0cbe 27aa f03d c883 1bbd
00000210: 7d21 c23d f73b 58bc d933 623d 143d 82be
00000220: 8a70 19bd 89cd 89be a053 f8bd 4ad1 ce3d
00000230: e787 79bc 1f09 f9bd 9fba aebe f83c a5bb
00000240: b678 773e 9e12 63bd bfae d5bd ec4b aa3c
00000250: 52a8 25be d9a0 3abe 1e13 003e c331 19bd
00000260: 8170 e3bd 2536 a4bd 3a1e c7bd 2207 293d
00000270: e2cd 9fbd b372 89be 8449 243e d75e 643d
00000280: 5556 eeba 7b20 3abe 38f2 89be 9036 473e
00000290: 21e8 a73c e756 3ebe 4f0e 033e 6a47 473e
000002a0: 4800 24bd ef51 ab3d 3224 85bd 91df 3a3e
000002b0: 91be d43d 590f 18be 4b20 2ebd 691f 14be
000002c0: b261 39be b48a 643e ba2e 30bc 426c 52bd
000002d0: 715b 2abe 0729 023e 9839 85bd 776e c1bc
000002e0: e57c e0ba f805 e4bd 7f85 313d fff1 2bbe
000002f0: 2944 13be 582d 18be 540a 16bd 5352 d8bd
00000300: fb89 f5bd d2ef 2bbe d5aa b83c 3ff2 10be
00000310: 4357 143d 25e1 ff3c 1da6 ee3b ed93 1d3d
00000320: f2a8 18be 9d29 8d3d 11fc 193d bdb7 c9bd
00000330: 8917 47bd df19 9bbd 2686 97bd 54df 05bd
00000340: fe7e e1bd 4441 ed3d 22aa 793d 7e53 76bd
00000350: 8330 09be 911c 6ebd 65d1 8cbd a7de 203d
00000360: 4512 97bc 367b 8cbd 7875 d4bc 1fe8 8cbd
00000370: 2bb4 13be 2da2 0fbe 188e 8ebd da40 413c
00000380: b096 cdbd e50e 6a3d 6458 f1bc 0246 d9bd
00000390: 276e 1fbd 8351 9bbd f242 3ebd c527 423d
000003a0: faa4 4cbd ffb6 873d 8013 0dbd 29a7 efbd
000003b0: 58d5 863d aa78 aabd aaac e8bc cecd 44bd
000003c0: 9327 9e3c b74c 09be 7a51 31bd 79df 7ebd
000003d0: 905f 693d ba47 dc3c 9871 6d3c acc8 e03c
000003e0: 3661 f1bd 4ece 9dbd 54ba 533d f2b5 25be
000003f0: 6f88 c9bd 5640 12bb c136 5abd d130 de3b

bias f4 [64]
0.13528863 0.11154841 -0.004753956 -0.028579338 -0.19338268 0.036873143 -0.056734983 -0.08215061
-0.3292647 0.012295188 -0.08333775 0.099184625 0.15975542 0.18178971 0.019208575 0.06961303
-0.30741104 -0.03306486 0.041787013 -0.0036700212 0.09689639 -0.09258818 -0.17318705 0.058706153
-0.049034566 0.06023559 0.13350856 0.020250456 0.08832559 0.20497714 -0.1515036 -0.2032863
0.26809004 -0.16458082 0.14837334 0.18001154 0.13063852 0.07141559 0.063742794 0.12320374
-0.122649245 0.22347562 0.1827831 0.19369036 0.17842218 -0.036623515 0.12840806 -0.014791403
-0.06825164 0.005301261 0.03139141 0.1257167 0.18391219 -0.103821695 -0.310204 0.16236208
-0.07174 0.06666976 0.19855875 0.076185115 -0.014299042 0.06819665 0.060583625 0.013888659
00000000: 1a89 0a3e 7e73 e43d 13c7 9bbb 371f eabc
00000010: 1c06 46be 4b08 173d f162 68bd 943e a8bd
00000020: 6295 a8be c271 493c fbac aabd 4f21 cb3d
00000030: ed96 233e 1527 3a3e 4d5b 9d3c 4791 8e3d
00000040: fb64 9dbe 056f 07bd dc28 2b3d bd84 70bb
00000050: 9d71 c63d df9e bdbd f257 31be dd75 703d
00000060: 78d8 48bd 98b9 763d 78b6 083e 49e4 a53c
00000070: 0ce4 b43d 87e5 513e c223 1bbe 492a 50be
00000080: 1943 893e e087 28be 2eef 173e f254 383e
00000090: 1bc6 053e 5642 923d 958b 823d 3e52 fc3d
000000a0: 872f fbbd cbd6 643e 7e2b 3b3e c456 463e
000000b0: 4eb4 363e 8a02 16bd 677d 033e a457 72bc
000000c0: 84c7 8bbd 33b6 ad3b 4794 003d e1bb 003e
000000d0: 7a53 3c3e 78a0 d4bd 0fd3 9ebe 3f42 263e
000000e0: 6cec 92bd 288a 883d fc52 4b3e f106 9c3d
000000f0: 8746 6abc afaa 8b3d 8926 783d 428d 633c

weight f4 [2, 64]
0.31410304 -0.21517229 -0.23537293 0.011397152 -0.08858213 0.08094809 0.25717705 0.09404338
0.07503824 0.04568972 0.042996913 0.08863122 -0.040289924 -0.09583714 0.06656599 -0.2421947
0.34819233 0.01165998 -0.21380427 -0.2664741 -0.037634913 0.29378414 0.2541688 0.08809166
0.037172914 -0.1871424 0.25856376 0.044223126 0.28094563 0.10914919 -0.011070042 0.06940972
-0.19013098 0.0046888785 -0.114401445 0.23426913 -0.100285396 0.20713873 -0.03275098 0.008585748
0.021967579 0.16309574 0.06367158 -0.36205608 -0.19009364 -0.00789551 -0.23774946 -0.1955692
0.012495683 0.2026503 -0.0789063 0.2154188 -0.18488254 0.17190377 0.23687881 0.058627844
0.08239124 -0.29085854 -0.18294339 -0.07599739 -0.03633247 0.0008608487 0.12339216 0.1860875
-0.026044449 -0.12370524 -0.20275943 -0.07838485 -0.113592096 0.16235718 0.24748948 0.12205581
0.29543456 -0.2552775 0.014842736 -0.24649523 0.13661443 0.10394088 -0.08328789 0.12507686
0.014504437 -0.36341 -0.0037386103 -0.057279833 0.1270106 0.13995096 0.019396948 -0.26964763
0.1553445 0.16524518 0.039427303 0.14819507 0.034758754 0.09204146 0.12648524 0.02669956
0.09480609 -0.09743618 0.09369111 -0.10161503 -0.13232607 -0.104154326 0.10469946 0.14513834
-0.044318277 0.07571645 0.1785953 -0.016003484 -0.0042720786 0.1004149 -0.02848598 0.06243383
-0.30670342 0.13576351 0.30568308 0.0021360393 -0.08360677 0.2615554 0.065521434 -0.026490375
0.06707353 -0.03403621 -0.041460097 -0.38249773 0.15694591 0.052886046 -0.11305692 0.1707547
00000000: 1dd2 a03e 2056 5cbe 9a05 71be 1fbb 3a3c
00000010: 8c6a b5bd 1dc8 a53d b6ac 833e d199 c03d
00000020: a6ad 993d 2525 3b3d 881d 303d 4984 b53d
00000030: 0c07 25bd 4346 c4bd c053 883d e301 78be
00000040: 4446 b23e 8009 3f3c 82ef 5abe 4b6f 88be
00000050: 1127 1abd e06a 963e 6a22 823e 6669 b43d
00000060: a042 183d 42a2 3fbe 7862 843e 4f23 353d
00000070: 1bd8 8f3e 9c89 df3d 1f5f 35bc af26 8e3d
00000080: b2b1 42be 2aa5 993b 4e4b eabd 3fe4 6f3e
00000090: 6e62 cdbd 2d1c 543e e425 06bd 3dab 0c3c
000000a0: 5af5 b33c 9202 273e 3f66 823d 6a5f b9be
000000b0: e8a7 42be 2b5c 01bc 9874 73be 4b43 48be
000000c0: b1ba 4c3c 8f83 4f3e a099 a1bd bf96 5c3e
000000d0: d951 3dbe 8b07 303e 5c90 723e c023 703d
000000e0: bdbc a83d 69eb 94be 8355 3bbe 85a4 9bbd
000000f0: 5bd1 14bd 94aa 613a 07b5 fc3d b98d 3e3e
00000100: 2b5b d5bc 2c59 fdbd 2ba0 4fbe 3c88 a0bd
00000110: f9a2 e8bd f640 263e e26d 7d3e 66f8 f93d
00000120: 3343 973e bcb3 82be f22e 733c 3f69 7cbe
00000130: a7e4 0b3e f5de d43d d792 aabd 2614 003e
00000140: 05a4 6d3c e010 babe 7903 75bb 429e 6abd
00000150: 110f 023e 4e4f 0f3e 59e6 9e3c 410f 8abe
00000160: a112 1f3e 0836 293e 867e 213d 73c0 173e
00000170: 325f 0e3d 3c80 bc3d 5985 013e 09b9 da3c
00000180: b229 c23d 9f8c c7bd 20e1 bf3d 8a1b d0bd
00000190: 7c80 07be dd4e d5bd ac6c d63d 259f 143e
000001a0: 1587 35bd 3a11 9b3d b0e1 363e bd19 83bc
000001b0: cbfc 8bbb 54a6 cd3d 6e5b e9bc 9eba 7f3d
000001c0: 3b08 9dbe 9705 0b3e 7e82 9c3e cbfc 0b3b
000001d0: 073a abbd 97ea 853e 1a30 863d 5802 d9bc
000001e0: d95d 893d 8e69 0bbd 10d2 29bd bed6 c3be
000001f0: 6eb6 203e 0a9f 583d 638a e7bd 52da 2e3e

bias f4 [2]
-0.041108597 0.036215227
00000000: 7d61 28bd 6b56 143d

weight f4 [2, 64]
0.032797836 -0.006523429 0.042418335 0.061325382 0.03799827 0.050694812 -0.019471424 0.04808322
0.08286601 -0.03562865 0.0175289 -0.033884227 -0.037707843 -0.076028846 -0.05683054 -0.029386144
0.040363092 0.00089377275 -0.15038052 -0.028158711 0.03401616 0.0018107169 0.015519617 0.068734035
0.064900115 0.035136454 0.024209239 0.04287314 -0.10341906 0.015059866 0.025936674 0.120731264
-0.09151801 0.019351196 -0.10301465 -0.03996972 -0.11737715 -0.16848195 -0.04507282 0.05494092
0.02164126 0.013192168 0.041473217 -0.022527717 -0.103926055 -0.11409978 -0.19722322 0.03914051
0.0137386685 -0.12160618 -0.024446452 -0.0941785 -0.0270527 -0.06842779 0.029967323 -0.24148959
0.047394585 -0.10100924 0.021972975 0.06471235 0.04321677 -0.07356557 0.019033482 0.03066869
0.00896243 0.009631084 -0.028578347 0.057063 -0.005993622 -0.0048387856 -0.056182247 -0.03898745
0.08989556 -0.12808576 -0.086227566 -0.069945805 -0.03976626 -0.04553664 -0.115282826 -0.024923766
0.026445463 -0.12417078 0.008081255 -0.029424949 -0.060342185 -0.03731178 -0.0010440056 0.007815308
-0.012566651 0.061930675 -0.042298455 0.0040911953 0.036958754 -0.033861738 -0.1153585 -0.0015575864
-0.013207865 -0.0035596269 -0.02014749 0.030500662 0.014433708 -0.017223738 -0.02404339 0.0036479768
0.07284009 -0.0009283087 -0.06068246 0.023399388 -0.03652984 0.0833644 -0.027673941 0.05675981
0.022621036 -0.019715067 -0.09829599 -0.02249593 0.024997154 0.0015868692 -0.026847953 0.030489497
0.0053609866 -0.07310741 -0.03299931 -0.007249161 -0.002461429 -0.0131544545 -0.024085823 -0.022966685
00000000: 0657 063d 7dc2 d5bb d9be 2d3d 5330 7b3d
00000010: 13a4 1b3d 5da5 4f3d 8982 9fbc e9f2 443d
00000020: a8b5 a93d 59ef 11bd c598 8f3c 30ca 0abd
00000030: 8a73 1abd 03b5 9bbd 24c7 68bd 36bb f0bc
00000040: c553 253d 134c 6a3a 5afd 19be 19ad e6bc
00000050: 8754 0b3d 9455 ed3a fe45 7e3c 6ec4 8c3d
00000060: 5aea 843d 3eeb 0f3d 7452 c63c bf9b 2f3d
00000070: 5fcd d3bd a8bd 763c 2679 d43c f441 f73d
00000080: cb6d bbbd 6686 9e3c 58f9 d2bd 4ab7 23bd
00000090: 6e63 f0bd 8886 2cbe 479e 38bd bb09 613d
000000a0: 0349 b13c f723 583c d2df 293d 0c8c b8bc
000000b0: 2fd7 d4bd 25ad e9bd e2f4 49be cd51 203d
000000c0: 2718 613c a90c f9bd ed43 c8bc a8e0 c0bd
000000d0: a09d ddbc df23 8cbd 087e f53c 0c49 77be
000000e0: d320 423d efdd cebd ab00 b43c e987 843d
000000f0: 1104 313d 8ca9 96bd 1bec 9b3c e83c fb3c
00000100: 28d7 123c b2cb 1d3c 231d eabc e4ba 693d
00000110: 2566 c4bb ad8e 9ebb 5b1f 66bd 4eb1 1fbd
00000120: 2a1b b83d ea28 03be 1498 b0bd bf3f 8fbd
00000130: f2e1 22bd a184 3abd 6719 ecbd ed2c ccbc
00000140: 28a4 d83c 404d febd 3d67 043c 970c f1bc
00000150: 5e29 77bd 3dd4 18bd 04d7 88ba c70b 003c
00000160: 5be4 4dbc 05ab 7d3d 2541 2dbd 6f0f 863b
00000170: 1062 173d 9bb2 0abd 1441 ecbd ed27 ccba
00000180: cd65 58bc a148 69bb 590c a5bc 86dc f93c
00000190: 5c7b 6c3c cc18 8dbc a5f6 c4bc e512 6f3b
000001a0: 2f2d 953d be59 73ba 2c8e 78bd 13b0 bf3c
000001b0: 50a0 15bd f4ba aa3d 76b4 e2bc f97c 683d
000001c0: c04f b93c 7e81 a1bc 684f c9bd 6249 b8bc
000001d0: d5c6 cc3c 7ffe cf3a 3df0 dbbc 1cc5 f93c
000001e0: 37ab af3b 56b9 95bd 492a 07bd 5f8a edbb
000001f0: ed4f 21bb c885 57bc a24f c5bc a124 bcbc

bias f4 [2]
0.022571279 -0.059610307
00000000: 67e7 b83c f029 74bd

weight f4 [64, 34]
0.21443246 -0.049062416 0.05093841 0.077047 -0.08122499 0.3114922 -0.1511381 0.36864692
-0.030830577 0.023310646 -0.046327744 -0.047995243 0.099495254 -0.0077991183 -0.033742327 0.0058867377
0.303169 -0.02689096 -0.0655388 0.04465771 -0.43062812 0.13469638 0.16514471 0.02207435
-0.092128 0.25982314 0.11480781 -0.031388994 -0.09527471 0.058252916 -0.027876226 -0.09353894
-0.33248782 -0.08900178 -0.008322094 -0.034613773 -0.12352498 0.1520416 0.078996174 0.051720064
0.052157033 -0.09103472 -0.17398232 -0.14330733 0.168282 -0.22801763 -0.069335625 0.16320907
-0.023428457 -0.019161707 0.10542744 -0.066861354 -0.2531961 -0.250065 0.0014545972 -0.14617667
-0.0032359713 0.24300966 0.26056463 -0.2892467 -0.13185844 0.34125325 0.07364477 -0.077108994
0.25857046 0.19696037 0.16311999 -0.047027625 0.5079706 -0.2485221 -0.25143006 0.07834475
-0.01650601 -0.067051895 -0.28909767 0.5250448 0.0002837964 0.047020435 0.0059291846 0.024195636
-0.030936405 0.0082171 0.16662519 -0.03091185 -0.37379932 -0.0758131 -0.39821538 0.22766759
-0.20531218 -0.25798288 -0.13740829 0.084507525 0.005426598 -0.019902183 -0.011857079 -0.16995196
0.05492451 -0.3285725 -0.22185825 -0.11671953 0.15860578 -0.09202276 0.0932089 0.1970729
0.1453083 0.007135113 0.119980544 0.18249679 -0.2304008 0.23513708 0.017600771 0.096466914
0.32405367 -0.10816946 0.22013941 0.0076115234 0.021834422 0.014167903 0.2688751 0.08462674
-0.17969975 0.09169927 -0.19123276 0.097429864 0.16724943 0.015445153 0.23318568 -0.1666165
-0.02295488 0.21227176 -0.011044416 -0.18955196 -0.15355931 0.17545933 0.08350382 0.08121966
-0.20717062 -0.046761353 -0.06561266 0.053295527 -0.04619461 0.019443184 0.06193134 0.027595673
-0.003444588 -0.00770871 -0.21319139 0.15893367 -0.0032388421 0.005954698 0.07136541 0.09322138
0.04814468 0.29761904 0.05137501 0.18918596 0.045162752 -0.40324053 0.20694228 -0.24790534
0.07901982 -0.081088535 0.020192033 0.086548135 0.06210834 0.2293744 -0.1972111 0.083302334
0.011732601 -0.039925452 -0.34204447 -0.026392177 0.0040407185 -0.017281584 0.07607497 -0.22596091
0.28539282 -0.037821755 0.0055141756 0.066019945 -0.08141881 0.0029148275 0.14621489 0.028049057
0.10617119 -0.038247433 0.037279632 -0.09834814 0.048130844 -0.13378637 0.23167229 0.3516422
0.20743822 -0.21095158 0.1999885 0.32620013 0.030024273 0.27231923 -0.041385718 0.1457253
0.38954708 -0.23507352 -0.08338559 0.013085591 0.5136876 -0.05131112 0.055579443 0.01467183
-0.011094341 0.2404541 -0.036544167 -0.0009501527 0.006195717 -0.05890527 0.06520551 0.0021973099
0.28009248 0.015371071 0.21992181 -0.008528121 0.37890658 -0.12414855 0.14920218 0.20747775
-0.067145444 -0.34554282 0.09970358 0.15971632 0.090787046 -0.05702293 -0.027214121 0.12870419
-0.0073578362 -0.17643307 0.17175831 -0.0115458695 0.12635939 0.08376754 -0.011919763 -0.018605743
-0.09057758 0.013783703 0.03098975 0.29240176 -0.10893122 -0.15733959 -0.08617429 0.07728561
-0.20510343 0.038571805 -0.24449815 0.0057141827 0.26625043 0.1831977 0.11556423 0.059332483
00000000: 2f94 5b3e acf5 48bd cba4 503d d1ca 9d3d
00000010: 4a59 a6bd e87b 9f3e f2c3 1abe 4abf bc3e
00000020: 6890 fcbc f8f5 be3c 29c2 3dbd a996 44bd
00000030: 2bc4 cb3d bf8f ffbb 6535 0abd 89e5 c03b
00000040: f838 9b3e 6e4a dcbc 3539 86bd 01eb 363d
00000050: 4a7b dcbe d9ed 093e b21b 293e 44d5 b43c
00000060: 9bad bcbd 8a07 853e 5b20 eb3d bf91 00bd
00000070: 631f c3bd 9c9a 6e3d af5c e4bc 5891 bfbd
00000080: d83b aabe 9146 b6bd 6459 08bc 2cc7 0dbd
00000090: aafa fcbd cbb0 1b3e bfc8 a13d 6bd8 533d
000000a0: 9da2 553d 6970 babd 6c28 32be 28bf 12be
000000b0: 1e52 2c3e 747d 69be d6ff 8dbd 4720 273e
000000c0: 09ed bfbc 03f9 9cbc 57ea d73d 9bee 88bd
000000d0: eba2 81be 8508 80be 2fa8 be3a 56af 15be
000000e0: 9712 54bb 86d7 783e ba68 853e 2518 94be
000000f0: e605 07be bfb8 ae3e 12d3 963d 52eb 9dbd
00000100: 5963 843e fbaf 493e ed08 273e 0aa0 40bd
00000110: 5c0a 023f 947c 7ebe 71bb 80be 3673 a03d
00000120: 9d37 87bc 8152 89bd 9c04 94be 5669 063f
00000130: 82ca 9439 8098 403d 9b49 c23b ed35 c63c
00000140: 586e fdbc 04a1 063c cb9f 2a3e d93a fdbc
00000150: a062 bfbe e643 9bbd e3e2 cbbe b121 693e
00000160: 5b3d 52be 5516 84be c2b4 0cbe 4812 ad3d
00000170: 9ad1 b13b e709 a3bc 3244 42bc e307 2ebe
00000180: 86f8 603d a83a a8be cf2e 63be a60a efbd
00000190: 8e69 223e 6e76 bcbd 4fe4 be3d 7acd 493e
000001a0: b3cb 143e aacd e93b 5cb8 f53d 70e0 3a3e
000001b0: 30ee 6bbe c6c7 703e 7e2f 903c 7290 c53d
000001c0: 5dea a53e f387 ddbd 3a6c 613e 166a f93b
000001d0: 1ade b23c 7e20 683c ffa9 893e c950 ad3d
000001e0: 3603 38be d4cc bb3d 85d2 43be 4f89 c73d
000001f0: 6f43 2b3e ab0d 7d3c 3ac8 6e3e 849d 2abe
00000200: df0b bcbc c55d 593e a3f3 34bc e919 42be
00000210: a73e 1dbe 9cab 333e 0d04 ab3d 7e56 a63d
00000220: 8924 54be d588 3fbd ee5f 86bd 694c 5a3d
00000230: 8f36 3dbd 5047 9f3c b7ab 7d3d 5210 e23c
00000240: 99be 61bb 5999 fcbb d84e 5abe 82bf 223e
00000250: c142 54bb a11f c33b 0728 923d daea be3d
00000260: 5b33 453d 8661 983e 9a6e 523d f7b9 413e
00000270: 94fc 383d 8b75 cebe ade8 533e e6da 7dbe
00000280: 25d5 a13d bf11 a6bd c369 a53c 2640 b13d
00000290: 5165 7e3d 1fe1 6a3e b5f1 49be 6a9a aa3d
000002a0: 183a 403c df88 23bd 7420 afbe 6834 d8bc
000002b0: 0168 843b 1c92 8dbc 32cd 9b3d 4c62 67be
000002c0: 021f 923e fcea 1abd 42b0 b43b 7735 873d
000002d0: e8be a6bd b106 3f3b 5bb9 153e 23c7 e53c
000002e0: 4870 d93d 57a9 1cbd 87b2 183d c06a c9bd
000002f0: d924 453d 4bff 08be 803b 6d3e 720a b43e
00000300: af6a 543e b103 58be c9c9 4c3e b403 a73e
00000310: 77f5 f53c 6d6d 8b3e 1284 29bd 0339 153e
00000320: b772 c73e 1db7 70be 10c6 aabd f264 563c
00000330: 0881 033f 9c2b 52bd 45a7 633d 1e62 703c
00000340: 0ac5 35bc 9939 763e 56af 15bd ab13 79ba
00000350: 7105 cb3b a746 71bd 778a 853d be00 103b
00000360: 4868 8f3e f2d6 7b3c 2f33 613e 88b9 0bbc
00000370: 0b00 c23e 9841 febd 75c8 183e 0c75 543e
00000380: 8d83 89bd fdea b0be 6431 cc3d ad8c 233e
00000390: 8fee b93d e090 69bd 26f0 debc 08cb 033e
000003a0: 011a f1bb dfaa 34be 69e1 2f3e e32a 3dbc
000003b0: 5b64 013e 518e ab3d 1c4b 43bc 126b 98bc
000003c0: bd80 b9bd 0ad5 613c 37de fd3c afb5 953e
000003d0: 5517 dfbd a11d 21be 257c b0bd eb47 9e3d
000003e0: a206 52be 78fd 1d3d b95d 7abe 0a3e bb3b
000003f0: fa51 883e 2e98 3b3e f0ac ec3d 9e06 733d

bias f4 [64]
0.12469872 0.03547694 -0.02913183 0.10428188 0.4986218 -0.24669454 0.74865174 0.21398433
0.42832997 -0.09030923 -0.008118311 0.36015293 0.2671788 -0.030679574 -0.2339298 0.270917
0.12960017 0.14762807 0.014401136 0.047712393 -0.07927687 0.667102 -0.015433646 0.17895062
0.227741 0.20135137 0.16538946 0.48452535 -0.050361186 0.14273508 0.38414055 0.06343596
0.27945802 0.41006905 0.043986678 0.16698459 0.39495376 -0.0057114405 0.3976873 0.30150878
0.07172606 0.116740406 0.16725585 -0.32911694 0.30275 -0.20654903 0.01079805 0.22419165
0.31353208 -0.07513457 0.122944154 0.1366925 0.4417755 0.17086123 0.4290849 -0.21951292
0.23596896 0.3216664 0.051162247 0.3254185 0.25842184 0.09021193 0.6834513 -0.07946769
00000000: 0b62 ff3d 4550 113d e0a5 eebc bd91 d53d
00000010: 5b4b ff3e 7e9d 7cbe a4a7 3f3f b51e 5b3e
00000020: 114e db3e 0cf4 b8bd aa02 05bc f765 b83e
00000030: a9cb 883e bb53 fbbc 4b8b 6fbe a2b5 8a3e
00000040: e8b5 043e d02b 173e bef2 6b3c 126e 433d
00000050: e95b a2bd 32c7 2a3f 67dd 7cbc d53e 373e
00000060: f034 693e 0e2f 4e3e db5b 293e b513 f83e
00000070: 8847 4ebd 2529 123e 12ae c43e b6ea 813d
00000080: 1f15 8f3e 92f4 d13e 602b 343d 02fe 2a3e
00000090: 6137 ca3e 0927 bbbb ab9d cb3e 5c5f 9a3e
000000a0: 1de5 923d 9815 ef3d 1e45 2b3e 0482 a8be
000000b0: 0c02 9b3e 9781 53be 4eea 303c 7f92 653e
000000c0: 4787 a03e 27e0 99bd 25ca fb3d 1ef9 0b3e
000000d0: 6630 e23e 3ff6 2e3e 04b1 db3e ffc7 60be
000000e0: d9a1 713e 75b1 a43e 818f 513d 419d a63e
000000f0: de4f 843e 08c1 b83d aaf6 2e3f f5bf a2bd

weight f4 [64, 64]
0.021588529 0.16713557 -0.39705288 0.09449884 0.13787697 -0.027599044 0.26292083 -0.017168207
0.11687326 -0.6137833 -0.041709077 -0.0009226225 -0.35818008 0.19655451 -0.42137408 0.18219529
0.13102926 -0.2480625 -0.31401393 -0.79277855 0.41371375 0.26434457 -0.27814293 -0.11230819
-0.29819354 -0.76771414 -0.37292165 0.07597045 0.28342062 0.06502285 0.02081936 -0.28920862
-0.12019233 0.27531642 -0.0025517344 0.1232416 0.15153736 0.23121603 0.1327948 -0.11246089
-0.4299994 0.07530699 -0.7359872 -0.055185083 0.043961003 -0.2857056 -0.49414548 -0.18231733
-0.5138652 -0.07672793 -0.25790122 0.31435272 -0.33143073 -0.24495724 -0.027935343 -0.02184384
0.062863976 -0.14586627 0.034877058 0.0368261 0.05372372 -0.36777195 -0.0021964214 0.063485265
-0.09201468 -0.055452786 0.017625036 -0.1353491 0.20849605 -0.31524748 0.16457653 -0.14118996
0.32683566 -0.112614 -0.01233561 0.3260842 -0.20117448 -0.06265148 -0.054825097 -0.06424996
0.023315366 0.086851 -0.060889997 -0.18627559 -0.06734134 -0.09695974 -0.03554853 0.33735463
0.15013775 0.12656225 0.23764537 -0.09861068 -0.2442555 0.041967586 0.30484012 -0.008548615
0.37469298 0.07872591 0.14436297 -0.1023254 -0.079115 0.006134224 0.004996869 0.338069
-0.030232895 0.01026812 0.2105274 -0.030524515 0.09594782 0.31081223 0.28839722 0.07820933
0.33220455 0.06621719 0.20678061 -0.09332443 -0.0448497 -0.2440707 -0.024366755 0.17539503
0.0659062 -0.14700775 0.028422961 -0.056386467 -0.2920269 0.07158046 0.069514446 -0.26142606
-0.02011599 -0.05409811 0.17231642 -0.09202949 0.11839703 -0.2716098 0.48978233 0.09650678
0.04366543 -0.17297734 -0.18698461 0.36220366 0.063554086 -0.05670286 0.047551006 0.036051158
0.17333734 0.13864145 0.17350931 0.2108731 0.021304736 0.24246229 -0.14240149 0.0018733282
0.2045112 -0.11330437 0.14229216 0.24727517 -0.002759922 0.047242474 0.15077595 -0.021088462
0.16901383 -0.061065707 0.108822145 -0.0225803 0.22239019 0.09004747 0.04877644 0.17431669
0.16267031 -0.02111867 -0.013358999 -0.039562978 0.09487302 -0.28499612 0.15038961 0.13578506
0.16399215 0.08064546 0.2774622 -0.16448322 0.21781985 0.05579896 0.17061822 -0.073341586
0.04061191 -0.0033524008 0.03293964 0.02018419 0.18067962 -0.016667366 0.32498127 -0.03598997
0.06739933 0.11155746 0.20025389 0.013042209 0.24729526 -0.21890798 0.30348596 0.045244575
0.11267441 0.07900664 -0.15828073 0.30525428 0.060560133 0.035839118 0.010136149 0.098274745
0.098604314 0.15752053 0.14320527 0.14208207 -0.16169694 0.094749115 -0.033510283 0.29855436
0.100968316 0.059633207 0.2551463 0.012190699 -0.03698269 0.07584996 0.20038743 0.16699557
0.43422806 0.017502276 0.16969576 0.03399099 0.18919925 0.026671326 -0.05799182 0.14737579
0.09343933 0.08119033 0.029096344 0.025524357 0.08399297 0.045998074 0.24530369 0.08388992
0.2371437 0.09047047 0.1847403 -0.076040894 0.26646984 0.16189665 0.2310318 0.14652477
0.16194886 0.15677461 0.0955739 0.2821146 0.14399153 0.17171559 0.19853176 -0.0829858
00000000: 6dda b03c 9625 2b3e 844a cbbe 9c88 c13d
00000010: 9f2f 0d3e 6417 e2bc 8f9d 863e 57a4 8cbc
00000020: 3f5b ef3d e720 1dbf 23d7 2abd 26dc 71ba
00000030: 6163 b7be 9645 493e 58be d7be 6791 3a3e
00000040: 892c 063e 1904 7ebe 6fc6 a0be 89f3 4abf
00000050: 4ad2 d33e 2c58 873e c068 8ebe d601 e6bd
00000060: d3ac 98be ea88 44bf 96ef bebe 6596 9b3d
00000070: 821c 913e b32a 853d 5d8d aa3c 2713 94be
00000080: 6527 f6bd 46f6 8c3e 003b 27bb 1866 fc3d
00000090: 9c2c 1b3e e5c3 6c3e 5cfb 073e e551 e6bd
000000a0: e228 dcbe 8d3a 9a3d a869 3cbf c109 62bd
000000b0: 7410 343d 0148 92be a300 fdbe 65b1 3abe
000000c0: ab8c 03bf 8823 9dbd a10b 84be d7f2 a03e
000000d0: 4ab1 a9be 12d6 7abe a9d8 e4bc daf1 b2bc
000000e0: d4be 803d f85d 15be 3fdb 0e3d f7d6 163d
000000f0: 670d 5c3d 9b4c bcbe d6f1 0fbb 9004 823d
00000100: 3172 bcbd 7622 63bd 6162 903c f498 0abe
00000110: fd7f 553e 1e68 a1be c086 283e 1a94 10be
00000120: 0157 a73e 2ba2 e6bd 4c1b 4abc 82f4 a63e
00000130: af00 4ebe 6b4f 80bd 4890 60bd 7c95 83bd
00000140: deff be3c f0de b13d ca67 79bd 07bf 3ebe
00000150: 42ea 89bd d492 c6bd 569b 11bd bfb9 ac3e
00000160: b6bd 193e 8999 013e 4f59 733e 65f4 c9bd
00000170: 1d1e 7abe 34e6 2b3d 0114 9c3e 7d0f 0cbc
00000180: c2d7 bf3e 0d3b a13d e3d3 133e fb8f d1bd
00000190: 0c07 a2bd 9a01 c93b c6bc a33b 6117 ad3e
000001a0: faaa f7bc 9e3b 283c 7f94 573e 8c0e fabc
000001b0: 4a80 c43d c822 9f3e cda8 933e 372c a03d
000001c0: b716 aa3e e19c 873d 4cbe 533e e120 bfbd
000001d0: 52b4 37bd abed 79be ca9c c7bc c19a 333e
000001e0: d4f9 863d 3389 16be 45d7 e83c 7ff5 66bd
000001f0: 8d84 95be c798 923d 975d 8e3d a3d9 85be
00000200: 4aca a4bc fb95 5dbd b773 303e f579 bcbd
00000210: 247a f23d 7110 8bbe c0c4 fa3e 59a5 c53d
00000220: 86da 323d f920 31be e578 3fbe c272 b93e
00000230: a528 823d 4241 68bd d8c4 423d 61aa 133d
00000240: 587f 313e 06f8 0d3e 6dac 313e 1eef 573e
00000250: 4587 ae3c 0948 783e b2d1 11be 778a f53a
00000260: 626b 513e 1f0c e8bd 09b5 113e b435 7d3e
00000270: cfdf 34bb 5381 413d 0365 1a3e b6c1 acbc
00000280: f611 2d3e 0920 7abd 25de de3d 52fa b8bc
00000290: 41ba 633e cf6a b83d cec9 473d 1380 323e
000002a0: 0c93 263e 1001 adbc b4df 5abc ca0c 22bd
000002b0: c94c c23d 03eb 91be bcff 193e 3d0b 0b3e
000002c0: 8fed 273e 7229 a53d 870f 8e3e 4a6e 28be
000002d0: 2b0c 5f3e 738d 643d 8bb6 2e3e 1d34 96bd
000002e0: ad58 263d f4b3 5bbb b7eb 063d 5059 a53c
000002f0: 1404 393e 008a 88bc f263 a63e 386a 13bd
00000300: a908 8a3d 3d78 e43d 5b0f 4d3e fdae 553c
00000310: f83a 7d3e 6a29 60be 8362 9b3e 6052 393d
00000320: d7c1 e63d 3cce a13d 5814 22be 4a4a 9c3e
00000330: e70d 783d 0acc 123d 1712 263c 4544 c93d
00000340: 0ff1 c93d 104d 213e 67a4 123e f67d 113e
00000350: e293 25be d30b c23d 1442 09bd 1edc 983e
00000360: 7ac8 ce3d f341 743d 89a2 823e 7fbb 473c
00000370: 297b 17bd 3957 9b3d 5d32 4d3e e300 2b3e
00000380: 2453 de3e ef60 8f3c bac4 2d3e 233a 0b3d
00000390: 73bd 413e d37d da3c d588 6dbd aee9 163e
000003a0: 1f5d bf3d 1e47 a63d 755b ee3c 7518 d13c
000003b0: 8204 ac3d 7a68 3c3d e430 7b3e 7ace ab3d
000003c0: ccd5 723e 9548 b93d 902c 3d3e 54bb 9bbd
000003d0: bc6e 883e 3cc8 253e 9a93 6c3e 970a 163e
000003e0: ecd5 253e 8689 203e 40bc c33d 5371 903e
000003f0: 8472 133e 36d6 2f3e e94b 4b3e 76f4 a9bd

bias f4 [64]
0.2284242 0.15743475 0.45004052 0.31027928 0.15941086 -0.007490146 0.107420966 0.3460594
0.4380239 0.41227522 0.37140068 0.16825299 0.38060093 0.4295492 -0.054906555 0.117650114
-0.05904916 0.23113576 0.22824349 0.39269835 0.41615537 0.4200946 0.47764614 -0.45112163
0.3317471 0.32072452 0.045088697 0.12588021 0.27857345 0.24273916 0.23336452 0.25121382
0.046719793 0.19653073 -0.39749092 0.43647355 0.25771543 0.34698722 0.21328291 0.35576564
0.3867007 0.3923618 0.24330142 0.2559794 0.2979828 0.3849566 0.2376676 0.0594969
0.10379527 0.2888121 0.26660246 0.27018225 0.26833025 0.26671144 0.28271773 0.20512336
0.15582053 0.2553224 -0.42154634 -0.04910322 0.19193912 0.43111944 0.17396267 0.13751765
00000000: 09e8 693e 9336 213e b66b e63e eddc 9e3e
00000010: 9a3c 233e e66f f5bb 86ff db3d b32e b13e
00000020: ab44 e03e bd15 d33e 3b28 be3e 834a 2c3e
00000030: 20de c23e dfed db3e b2e5 60bd 8bf2 f03d
00000040: 88dd 71bd daae 6c3e a9b8 693e c20f c93e
00000050: 5112 d53e a416 d73e 098e f43e 6af9 e6be
00000060: c2da a93e 0136 a43e edae 383d bee6 003e
00000070: 2ea1 8e3e 9d90 783e 1cf7 6e3e 199f 803e
00000080: 415d 3f3d 5a3f 493e ee83 cbbe 7679 df3e
00000090: 47f3 833e 4fa8 b13e d666 5a3e ea26 b63e
000000a0: a2fd c53e a5e3 c83e 0224 793e bb0f 833e
000000b0: 3491 983e 0819 c53e 235f 733e 05b3 733d
000000c0: 9d92 d43d 2edf 933e 1e80 883e 5455 8a3e
000000d0: 9562 893e 678e 883e 61c0 903e dc0b 523e
000000e0: 6b8f 1f3e 9eb9 823e ecd4 d7be 7520 49bd
000000f0: b08b 443e b0bb dc3e 4523 323e 6dd1 0c3e

weight f4 [1, 64]
-0.74563354 0.33962783 0.33133996 0.19436179 -0.6836608 -0.040866513 -0.64913094 0.17086616
0.38798925 0.26056162 0.28258172 -0.5993716 0.21520501 0.353216 -0.7028539 -0.76733136
0.022364004 -0.7206122 0.27845657 0.31490004 0.6399419 0.30145112 0.23131016 -0.8888966
0.31126064 -0.73590034 -0.57219476 -0.72954166 0.3706943 -0.6328085 -0.56736916 0.31219453
-0.030370358 -0.58521956 -0.8473419 0.17724559 0.37036738 0.24509712 0.45337564 0.2894693
0.24460477 0.30329344 -0.59335077 0.25581294 0.55263066 0.25175014 0.29090172 -0.5878445
-0.6143164 0.26757008 0.24815232 -0.5951259 0.28163996 0.48189008 0.3646039 -0.6953091
-0.5988817 0.2619166 -0.6376605 -0.5608326 -0.7265173 0.2771728 -0.7307236 -0.62372345
00000000: d7e1 3ebf b3e3 ad3e 64a5 a93e c706 473e
00000010: 6504 2fbf a563 27bd 722d 26bf 8af7 2e3e
00000020: 87a6 c63e 5568 853e 8dae 903e 6b70 19bf
00000030: b45e 5c3e bad8 b43e 3cee 33bf d46f 44bf
00000040: b734 b73c 0b7a 38bf dc91 8e3e 943a a13e
00000050: 3bd3 233f cd57 9a3e 92dc 6c3e ba8e 63bf
00000060: 8e5d 9f3e f763 3cbf 5b7b 12bf 3ec3 3abf
00000070: a5cb bd3e bdff 21bf 1b3f 11bf f6d7 9f3e
00000080: 42cb f8bc f3d0 15bf 66eb 58bf de7f 353e
00000090: cba0 bd3e bdfa 7a3e da20 e83e 5235 943e
000000a0: ac79 7a3e 4749 9b3e d6e5 17bf eaf9 823e
000000b0: 3479 0d3f 65e5 803e 12f1 943e fa7c 16bf
000000c0: d743 1dbf f2fe 883e a41b 7e3e 2c5a 18bf
000000d0: 1d33 903e 4cba f63e 5dad ba3e c7ff 31bf
000000e0: 5050 19bf ef19 863e b83d 23bf ba92 0fbf
000000f0: 0afd 39bf 98e9 8d3e b410 3bbf 57ac 1fbf

weight f4 [64, 34]
0.08790751 0.2070617 0.04127466 -0.29172075 -0.054938223 0.14843738 -0.21341792 0.26116535
-0.23130707 -0.29908833 0.17365575 -0.072295934 0.16552195 0.17120607 -0.054576583 0.07581624
0.060346834 -0.10419551 0.3401143 0.17341465 -0.098154955 0.0369099 -0.0045275474 0.20720834
0.07758693 0.42347375 0.012434812 -0.06475182 0.06614197 -0.053062446 0.00027051585 -0.3861478
0.15928264 0.124599434 -0.10748562 0.13385564 0.10802638 0.051240783 0.14492194 0.12282731
-0.098817825 0.0972053 0.12167303 0.0016944568 0.16448076 -0.14229134 0.21674223 0.0028985906
0.26065576 -0.09449454 0.27537927 0.27471095 -0.09815438 -0.053043276 -0.19565207 -0.1993357
0.09016181 0.30032343 -0.0498702 -0.053706564 -0.10083121 0.18242438 -0.10134722 -0.036201466
-0.020315297 0.05836438 0.1408499 -0.08567768 0.18950167 -0.022488637 -0.038468644 0.0076511214
-0.07256347 -0.016084552 -0.2243198 0.26746568 0.010654608 -0.12243276 0.033789765 -0.064281434
0.07310772 0.013807839 0.037025467 0.01732051 0.50709987 -0.04006167 0.009616701 -0.13169987
-0.11999311 0.01711433 0.16906476 0.05341114 0.05687322 0.039516687 -0.024332186 0.1300415
0.009247335 -0.23677282 0.063987136 -0.018900791 0.1252909 0.029703436 0.2653819 -0.026109654
0.0011839923 -0.034191784 -0.12767206 0.090359665 -0.16462357 -0.094466664 -0.084415026 -0.19538155
0.059656434 0.016435996 -0.042265963 0.028608145 -0.056296103 0.008491863 0.08675578 0.28209102
-0.118572086 -0.044464767 -0.27849472 -0.16963644 -0.23034354 0.3097324 0.037484646 -0.047576975
-0.11643555 0.022852987 -0.0737545 -0.1032782 -0.3353084 0.3067412 0.07892131 -0.05771298
0.45775247 0.14487486 0.11576653 -0.055680055 -0.066069365 0.36545774 -0.06782789 -0.010700945
0.07492678 0.36289233 0.31496456 -0.2902155 -0.18804519 0.08412859 0.22381712 -0.015909057
0.20785277 0.006250531 -0.15477337 0.18100195 -0.2648292 0.29570526 -0.23549858 -0.1691096
0.01936007 0.1588319 0.13345863 0.27356157 -0.15665834 -0.3482481 0.14101297 -0.016816745
-0.2113255 0.017739072 0.13409716 0.05630988 -0.11565291 -0.09185699 0.0037719645 0.05580071
0.17638983 0.09245687 0.017950585 -0.112830244 -0.03817601 0.14649199 0.24358723 -0.004593386
0.2282967 -0.10243821 0.30459812 -0.16901623 0.14352341 0.06789561 -0.10548786 0.026245609
0.071591556 -0.22320187 0.04383673 0.12840627 0.14471741 -0.1774702 0.08344865 0.06616961
-0.08324872 -0.06468894 -0.22984259 -0.06315917 0.06591975 0.019308776 0.18297085 -0.008678335
0.046291143 -0.2646824 -0.3421905 -0.38356262 -0.014871908 0.20859058 0.06266376 -0.081811264
-0.23567174 -0.10295304 0.10678804 0.16651005 0.046871778 -0.047621574 -0.2559014 -0.10784185
-0.1850465 -0.23971015 -0.021727765 -0.0044261473 -0.06719901 -0.18678352 0.041612614 0.20499717
0.036625378 -0.44321886 0.4429828 -0.00016895628 -0.012018912 0.03977101 0.14465693 -0.05914143
0.117966145 0.1331395 -0.04763744 0.29639307 -0.15072691 -0.050650317 0.07811873 0.2359272
0.23869254 0.03729194 0.18676738 0.09234781 -0.009040776 0.07462607 0.33316073 0.27780643
00000000: da08 b43d fb07 543e 9e0f 293d 6c5c 95be
00000010: e706 61bd f8ff 173e 3a8a 5abe 77b7 853e
00000020: c3db 6cbe 1b22 99be d0d2 313e e40f 94bd
00000030: 967e 293e a550 2f3e b28b 5fbd 8b45 9b3d
00000040: 3e2e 773d 7564 d5bd 7623 ae3e 9c93 313e
00000050: 7705 c9bd d62e 173d d25b 94bb 6c2e 543e
00000060: e5e5 9e3d 8dd1 d83e 62bb 4b3c 9a9c 84bd
00000070: 7175 873d 0258 59bd 06d4 8d39 2ab5 c5be
00000080: fd1a 233e fd2d ff3d 6c21 dcbd 7411 093e
00000090: ef3c dd3d dbe1 513d 6b66 143e e28c fb3d
000000a0: 0061 cabd 9313 c73d b62f f93d 8918 de3a
000000b0: a56d 283e d2b4 11be adf1 5d3e 48f6 3d3b
000000c0: ac74 853e 5a86 c1bd 83fe 8c3e eaa6 8c3e
000000d0: 2a05 c9bd e843 59bd 0459 48be a81e 4cbe
000000e0: c1a6 b83d fec3 993e b244 4cbd 6afb 5bbd
000000f0: 9880 cebd 75cd 3a3e 228f cfbd fd47 14bd
00000100: 446c a6bc 7d0f 6f3d f53a 103e c877 afbd
00000110: ba0c 423e 173a b8bc 4c91 1dbd 42b6 fa3b
00000120: 289c 94bd c0c3 83bc 17b4 65be 43f1 883e
00000130: aa90 2e3c 07be fabd 2367 0a3d fca5 83bd
00000140: 80b9 953d 463a 623c 04a8 173d bee3 8d3c
00000150: 4cd1 013f b517 24bd 5e8f 1d3c 55dc 06be
00000160: f3be f5bd 5a33 8c3c 501f 2d3e a4c5 5a3d
00000170: e5f3 683d 40dc 213d 4b54 c7bc 9929 053e
00000180: 2282 173c 9374 72be b00b 833d d5d5 9abc
00000190: 424c 003e 9f54 f33c 23e0 873e eae3 d5bc
000001a0: 3030 9b3a af0c 0cbd 77bc 02be 7d0e b93d
000001b0: 1593 28be bd77 c1bd c9e1 acbd 1a12 48be
000001c0: 4e5a 743d c8a4 863c 131f 2dbd a15b ea3c
000001d0: be96 66bd 7421 0b3c 04ad b13d 3c6e 903e
000001e0: ecd5 f2bd b020 36bd dc96 8ebe 2db5 2dbe
000001f0: 2ddf 6bbe 3f95 9e3e 8089 193d 13e0 42bd
00000200: c375 eebd 3036 bb3c 990c 97bd 8583 d3bd
00000210: 8bad abbe 2f0d 9d3e 7fa1 a13d 7264 6cbd
00000220: 885e ea3e 135a 143e 0117 ed3d c510 64bd
00000230: 604f 87bd 471d bb3e 59e9 8abd 0453 2fbc
00000240: 3673 993d 06cd b93e 0943 a13e 2097 94be
00000250: eb8e 40be 9c4b ac3d 5130 653e b653 82bc
00000260: 5bd7 543e 41d1 cc3b e97c 1ebe 9358 393e
00000270: b197 87be ae66 973e 8a26 71be 112b 2dbe
00000280: 0299 9e3c d4a4 223e 61a9 083e 4310 8c3e
00000290: 0b6b 20be 934d b2be b465 103e 45c3 89bc
000002a0: b665 58be 8851 913c c450 093e 30a5 663d
000002b0: 6fdb ecbd 841f bcbd 1033 773b 498f 643d
000002c0: 899f 343e 075a bd3d 1b0d 933c 8b13 e7bd
000002d0: 735e 1cbd ff01 163e ee6e 793e 1d84 96bb
000002e0: 9cc6 693e 20cb d1bd 49f4 9b3e 9712 2dbe
000002f0: cdf7 123e db0c 8b3d 050a d8bd 0801 d73c
00000300: 989e 923d 088f 64be 258e 333d ef7c 033e
00000310: cd30 143e c0ba 35be 20e7 aa3d ef83 873d
00000320: 4e7e aabd a37b 84bd db5b 6bbe 9859 81bd
00000330: ef00 873d 702d 9e3c b65c 3b3e 932f 0ebc
00000340: c89b 3d3d 7484 87be 9833 afbe 5262 c4be
00000350: 4ea9 73bc c598 553e db55 803d aa8c a7bd
00000360: ef53 71be 0bd9 d2bd b0b3 da3d 9c81 2a3e
00000370: 9ffc 3f3d d70e 43bd 8205 83be 30dc dcbd
00000380: d47c 3dbe 9476 75be 6dfe b1bc 3709 91bb
00000390: a29f 89bd 2e44 3fbe fd71 2a3d c7ea 513e
000003a0: 7e04 163d 95ed e2be a4ce e23e db29 31b9
000003b0: f8ea 44bc ede6 223d f220 143e 493e 72bd
000003c0: 3c98 f13d b955 083e 7a1f 43bd d5c0 973e
000003d0: 2858 1abe b576 4fbd b6fc 9f3d e696 713e
000003e0: d16b 743e 6fbf 183d f33f 3f3e d920 bd3d
000003f0: c31f 14bc 8ed5 983d 0b94 aa3e a53c 8e3e

bias f4 [64]
0.0012552051 0.44403747 0.614724 -0.2189238 0.1719291 0.54065245 0.2008984 0.2600668
0.55813295 0.56198466 -0.021875493 0.47614092 0.20421904 0.02508545 -0.19580457 0.599882
0.5399215 0.016996752 0.4984633 0.22932862 -0.018943828 0.25430286 -0.015460757 0.20829888
0.13348626 0.6011077 0.24867293 0.27018663 0.03541607 0.15666996 0.0658402 0.21559252
0.2603231 0.23775393 0.46341047 0.35008922 0.46250212 0.28886044 -0.010505082 -0.06444503
0.15844885 0.31007892 0.28532347 -0.14800557 -0.02872036 0.12608773 -0.12849548 0.24173477
0.3342583 0.16199903 -0.11864697 -0.158553 0.27171195 0.15894513 0.53445023 0.14818448
0.25871086 0.46146128 0.13699727 -0.061455507 0.12311004 0.010056006 0.18058293 0.056844987
00000000: b285 a43a e158 e33e 8d5e 1d3f 902d 60be
00000010: 2f0e 303e 3368 0a3f 4fb8 4d3e 7a27 853e
00000020: cde1 0e3f 3ade 0f3f 3c34 b3bc bec8 f33e
00000030: cc1e 513e 0080 cd3c fe80 48be de91 193f
00000040: 4c38 0a3f c63c 8b3c 9536 ff3e 1fd5 6a3e
00000050: 1630 9bbc fc33 823e 1d4f 7dbc 4d4c 553e
00000060: 9fb0 083e 32e2 193f 1ea4 7e3e e755 8a3e
00000070: 7110 113d 176e 203e 3ad7 863d 49c4 5c3e
00000080: 1249 853e c475 733e 2344 ed3e e53e b33e
00000090: 14cd ec3e 84e5 933e 821d 2cbc c2fb 83bd
000000a0: 6a40 223e aac2 9e3e eb15 923e c68e 17be
000000b0: f646 ebbc 241d 013e 5294 03be 5289 773e
000000c0: e723 ab3e 13e3 253e 2ffd f2bd b85b 22be
000000d0: d41d 8b3e 83c2 223e bbd1 083f acbd 173e
000000e0: c075 843e a744 ec3e 0349 0c3e c5b8 7bbd
000000f0: 1e21 fc3d f2c1 243c bbea 383e 4ad6 683d
